my_going_modular/models/05_going_modular_script_mode_tinyvgg_model.pth (torch, 37090 bytes, 10 tensors)

conv_block_1.0.weight f4 [10, 3, 3, 3]
0	0xbe3c4b6c	-0.18388146
1	0x3b3ad3ae	0.0028507519
2	0xbdf22326	-0.1182311
3	0x3de7774d	0.11302052
4	0xbd01183d	-0.031517256
5	0x3e1abc11	0.15110804
6	0x3b527542	0.0032113348
7	0x3d0e33d7	0.034717407
8	0x3e25f161	0.1620536
9	0x3de7434c	0.11292133
10	0xbda8a29e	-0.08234142
11	0x3db43543	0.08799221
12	0xbb2c6bba	-0.0026309327
13	0xbdfffc0f	-0.12499248
14	0x3dc1baa0	0.09459424
15	0xbdacc622	-0.08436228
16	0xbdee9629	-0.116497345
17	0xbdaf756c	-0.08567318
18	0xbe27f20e	-0.1640093
19	0x3d8e73ff	0.06955718
20	0xbcfe7bb2	-0.031064842
21	0x3e2b04df	0.16701077
22	0xbdc1dda8	-0.09466106
23	0xbe13c2b1	-0.14429738
24	0xbe095612	-0.1341174
25	0xbb83ff0c	-0.0040282067
26	0xbe2e06cd	-0.16994782
27	0xbe35575f	-0.1770911
28	0xbd005a40	-0.03133607
29	0xbb1dc940	-0.0024076253
30	0x3c7ccc40	0.015429556
31	0xbd56b42c	-0.05241792
32	0xbe2e958e	-0.17049238
33	0xbe285439	-0.16438378
34	0x3e05e9b3	0.1307743
35	0x3e2bafe9	0.16766323
36	0xbe1c16f7	-0.15243135
37	0x3dbbadf6	0.0916404
38	0xbbbcb840	-0.005759269
39	0x3dec88de	0.11549543
40	0x3deb55ba	0.114909604
41	0xbe410592	-0.18849781
42	0xbde02849	-0.10945184
43	0x3c747880	0.014921308
44	0xbdc18c18	-0.09450549
45	0xbcd70958	-0.026249573
46	0x3c5e6df0	0.013576016
47	0xbe160956	-0.14651999
48	0xbacb5f00	-0.0015515983
49	0x3e2fd459	0.17170848
50	0xbe01b2c7	-0.12665854
51	0xbc9c8208	-0.019104972
52	0x3e2cc851	0.1687329
53	0xbd7716d4	-0.060324505
54	0xbd243e35	-0.040098388
55	0x3cb3a807	0.021930708
56	0x3e080261	0.13282157
57	0xbc9b8905	-0.018986234
58	0x3db64c2f	0.089012496
59	0x3df86ecd	0.121305086
60	0xbe2c28a7	-0.16812383
61	0x3db87b0c	0.09007844
62	0xbe45933f	-0.19294451
63	0x3d878ebf	0.066190235
64	0xbb4a229e	-0.0030843387
65	0x3e1e0d73	0.15434818
66	0x3d7e354b	0.062062543
67	0x3cc5ca6b	0.024144372
68	0xbe0c4a08	-0.13700116
69	0xbdb6ca45	-0.089252986
70	0x3e1ea9b9	0.15494432
71	0x3d062b2e	0.032756023
72	0xbcc39296	-0.023873609
73	0xbdc36219	-0.09540195
74	0x3e1239c4	0.14279848
75	0x3e197e6a	0.1498963
76	0x3d63a0dd	0.055573333
77	0x3e0f70a8	0.14007819
78	0xbdbf18ab	-0.09330877
79	0xbd55b5a4	-0.05217518
80	0xbda6c431	-0.08142889
81	0x3d92e2e5	0.07172183
82	0xbde6497c	-0.11244485
83	0x3d01d083	0.031692993
84	0x3ce84be7	0.028356506
85	0x3d733c53	0.0593837
86	0xbe43cc67	-0.19120942
87	0x3dca2002	0.09869386
88	0x3def2ff6	0.1167907
89	0xbe4be78b	-0.19912545
90	0xbde60095	-0.1123058
91	0xbd4b34c2	-0.04961086
92	0x3e2f194f	0.17099498
93	0x3cd72a1e	0.0262652
94	0x3d1d0e6d	0.038343836
95	0xbe3ef3d8	-0.18647707
96	0xbd46b174	-0.048509076
97	0x3bfb988b	0.0076780966
98	0xbcc05bb7	-0.023481233
99	0x3d64d7d6	0.0558699
100	0x3de42320	0.11139512
101	0xbe3db4dc	-0.18526024
102	0x3d954978	0.07289404
103	0x3dbe3126	0.09286718
104	0xbe0b9a5d	-0.13633104
105	0xbe34ea13	-0.17667417
106	0xbd252237	-0.040315833
107	0x3e3bbec3	0.18334489
108	0xbd20bb93	-0.039241385
109	0x3e07b5d6	0.13252959
110	0xbdd6016a	-0.104494885
111	0x3cca2dc2	0.024680022
112	0x3d95a1fa	0.07306285
113	0x3ddbf220	0.10739541
114	0xbe27c8d3	-0.16385202
115	0x3da5499a	0.08070679
116	0xbdedba1b	-0.116077624
117	0x3e05c5cc	0.13063735
118	0xbe1fcc17	-0.15605198
119	0x3d1115e6	0.035421275
120	0x3dc73281	0.0972643
121	0xbc7f61a8	-0.015587248
122	0x3e2a4067	0.1662613
123	0x3bd81a6b	0.006594946
124	0x3d037d1c	0.032101735
125	0xbd99b8ea	-0.07505973
126	0x3d9f5d4b	0.07781466
127	0x3de40840	0.11134386
128	0xbd8024b6	-0.06257002
129	0xbd78bb76	-0.06072565
130	0xbdb87c2e	-0.090080604
131	0x3b1ac02a	0.0023613074
132	0xbe2ee373	-0.17078952
133	0xbe2dc8b9	-0.16971101
134	0xbe0b03a8	-0.13575613
135	0xbdf36c97	-0.11885946
136	0x3def24e5	0.11676959
137	0xbe3af288	-0.18256581
138	0xbe21bd0e	-0.15794775
139	0xbe396c60	-0.18107748
140	0xbe2b8bec	-0.16752595
141	0x3e19898d	0.14993878
142	0xbe227aa5	-0.15867098
143	0x3d9e6f6f	0.07736098
144	0xbd917eb5	-0.071042456
145	0x38cedf70	9.864464e-05
146	0x3e253ef2	0.16137293
147	0xbd1953c4	-0.0374334
148	0x3deea671	0.1165284
149	0x3e396f01	0.18108751
150	0xbe0cc3f6	-0.13746628
151	0xbe0853ba	-0.13313189
152	0x3e2dc0ef	0.1696813
153	0xbe398177	-0.18115793
154	0xbc5faa47	-0.013651437
155	0xbc82f357	-0.015985174
156	0x3e060fb4	0.13091928
157	0xbddc24f6	-0.10749237
158	0xbdbba23d	-0.09161804
159	0xbc986efe	-0.018607613
160	0x3db7777a	0.08958335
161	0x3dccdb85	0.100028075
162	0xbd4dee39	-0.050276015
163	0x3d4eeab5	0.050516803
164	0xbe113e26	-0.14183864
165	0xbdfefadc	-0.124501914
166	0xbdcd5e6b	-0.100277744
167	0xbdb25940	-0.08708429
168	0xbdc312e4	-0.095250875
169	0xbdfdad86	-0.123866126
170	0x3dbee94d	0.09321842
171	0xbe10f66a	-0.141565
172	0xbe2da0b5	-0.16955836
173	0xbe33ec6c	-0.17570657
174	0xbd955e35	-0.07293359
175	0xbe253a58	-0.16135538
176	0x3dd2eff5	0.102996744
177	0x3da3875a	0.07984801
178	0xbd573352	-0.052539177
179	0xbdf36f2d	-0.118864395
180	0xbdd85f59	-0.10565061
181	0x3d990ada	0.07472773
182	0xbd1757e7	-0.036949065
183	0xbcf09b4d	-0.029370928
184	0x3d271aca	0.040797032
185	0xbce26f6f	-0.027641026
186	0x3dd3602a	0.10321076
187	0x3e1398bc	0.14413732
188	0x3e0f60fc	0.1400184
189	0x382511a8	3.935551e-05
190	0x3e010863	0.12600856
191	0xbd2f10e0	-0.042740703
192	0xbdb502b8	-0.08838409
193	0xbc6e8a14	-0.014559288
194	0x3dc8bf3d	0.09802101
195	0xbe25c3e0	-0.16188002
196	0xbc5c2854	-0.013437349
197	0xbdd04ded	-0.10171113
198	0x3db4e736	0.088331625
199	0xbda8cd50	-0.08242285
200	0x3e2eecd1	0.17082526
201	0x3e1ad07d	0.15118594
202	0x3d209b35	0.039210517
203	0x3e40aafb	0.18815224
204	0x3ae1c021	0.0017223397
205	0xbde6eaed	-0.11275277
206	0x3e0d3da9	0.13793053
207	0xbc4e5ffe	-0.0125961285
208	0xbcc928e8	-0.024555638
209	0x3db8ebf8	0.090293825
210	0x3dc8f4d6	0.09812324
211	0xbd34e767	-0.044165995
212	0xbe48ad1f	-0.1959729
213	0x3d5d12ff	0.053973194
214	0x3c814d81	0.015784027
215	0x3d900419	0.070320316
216	0x3e14ca10	0.14530206
217	0xbe247d2a	-0.16063371
218	0x3da414dd	0.08011792
219	0x3e41058d	0.18849774
220	0x3d260c59	0.04053912
221	0x3dbc4497	0.0919277
222	0xbe0b61f6	-0.13611588
223	0x3d9ab2d5	0.07553641
224	0xbe3cb79d	-0.18429418
225	0x3dac7e10	0.08422482
226	0xbdb88604	-0.090099365
227	0xbdbe7b3a	-0.09300847
228	0xbc0f4a03	-0.008745673
229	0x3dc28a6a	0.09499057
230	0x3d532fb4	0.051559165
231	0x3df3177c	0.11869714
232	0x3dbf7b3e	0.093496785
233	0x3deda052	0.11602844
234	0xbd4a7cad	-0.049435306
235	0x3e3e6da5	0.18596514
236	0x3e112fdf	0.14178418
237	0xbe14a7b5	-0.145171
238	0xba1a8a11	-0.0005895207
239	0xbe2ea6d4	-0.17055827
240	0xbd42c41b	-0.047550302
241	0xbc5a325a	-0.013317669
242	0x3d27d42a	0.04097382
243	0xbdf8a9c7	-0.121417575
244	0x3e25cba8	0.1619097
245	0x3e3d3dd7	0.18480621
246	0x3e0e89b7	0.13919722
247	0xbcf62beb	-0.030050239
248	0xbd3d2133	-0.04617424
249	0x3d30dfaa	0.043182053
250	0xbda5d400	-0.080970764
251	0x3e06d2e2	0.13166383
252	0x3e32647c	0.17421144
253	0xbe278b76	-0.16361794
254	0xbc36e7d8	-0.011163674
255	0x3c8a1043	0.016853457

conv_block_1.0.bias f4 [10]
0	0xbc4acc8c	-0.012377869
1	0xbe1da191	-0.15393664
2	0x3e29e3bb	0.16590779
3	0x3db4029c	0.0878956
4	0x3dc84f68	0.097807705
5	0xbd6a22f6	-0.057162248
6	0x3c20d549	0.009816476
7	0xbdf74072	-0.12072839
8	0xbd2fbaaa	-0.042902626
9	0x3c85c5c4	0.016329654

conv_block_1.2.weight f4 [10, 10, 3, 3]
0	0xbd954849	-0.07289178
1	0x3caf0554	0.021364845
2	0x3d0e482a	0.03473679
3	0xbd11873a	-0.035529353
4	0xbd9f1cc9	-0.07769162
5	0xbdbd470c	-0.09242067
6	0x3d6edd92	0.058316775
7	0x3d928657	0.071545295
8	0xbdb79854	-0.08964601
9	0xbc2b2e40	-0.010448039
10	0xbd84e6bc	-0.064893216
11	0x3d4d0f92	0.050063677
12	0xbc798c58	-0.015231214
13	0x3d1ba9ae	0.038003616
14	0xbd037d64	-0.032102004
15	0xbdbf68a7	-0.09346133
16	0x3d814781	0.063124664
17	0xbdd7a51c	-0.10529539
18	0xbcd6dc84	-0.026228197
19	0x3bd2d728	0.00643434
20	0x3dcd6993	0.10029902
21	0xbdba8a3b	-0.091083966
22	0xbd04377d	-0.03227948
23	0x3dd34a7d	0.10316942
24	0x3cac9902	0.021069054
25	0xbc41fb0b	-0.011839638
26	0xbd4312cc	-0.047625348
27	0x3d0d41b2	0.03448648
28	0x3c8c4d04	0.017126568
29	0x3dc7b53d	0.09751365
30	0x3d892568	0.06696588
31	0xbdc37975	-0.095446505
32	0xbd846b50	-0.06465781
33	0xbd1ec6f4	-0.038763955
34	0xbcfe20ee	-0.031021561
35	0xbd8a6448	-0.067574084
36	0x3d16ce8d	0.036818076
37	0x3cb2ed2b	0.021841606
38	0x3dce3e84	0.10070518
39	0x3d3306f2	0.043707795
40	0xbcee85ce	-0.029116537
41	0x3d6011f7	0.054704633
42	0x3c9011d6	0.01758663
43	0xbdbc6461	-0.09198833
44	0x3dcba156	0.09942882
45	0x3c9be4a8	0.01902993
46	0x3daf7971	0.08568085
47	0xbd28c81a	-0.041206457
48	0xbdb18c9c	-0.08669397
49	0x3d02626e	0.03183215
50	0xbcea11bc	-0.02857291
51	0x3da7b1f9	0.081882425
52	0xbd3b3057	-0.045700397
53	0x3da93dc5	0.08263735
54	0xbc9d08fc	-0.019169323
55	0x3d0090d6	0.031388126
56	0xbd83a6d6	-0.06428306
57	0xbc83e88c	-0.016102098
58	0xbdcdc459	-0.10047216
59	0x3db0e47d	0.08637331
60	0xbd382f96	-0.044967256
61	0x3c66e8a8	0.0140935555
62	0xbd6fdb6f	-0.058558878
63	0xbd752d97	-0.05985793
64	0x3dccb17c	0.0999479
65	0xbd25a362	-0.040439017
66	0x3d9ea9e9	0.077472515
67	0x3b87a200	0.004139185
68	0x3dacf3ff	0.08444976
69	0xbd9a7456	-0.075417206
70	0xbd973208	-0.073825896
71	0xbd27a536	-0.04092904
72	0x3b25ae24	0.0025280798
73	0xbdb20378	-0.08692068
74	0xbd1c5d3b	-0.03817485
75	0xbdce45b1	-0.10071886
76	0x3a4d8428	0.0007839822
77	0x3d4f725a	0.050646164
78	0xbda2fc82	-0.07958318
79	0xbdcd48eb	-0.100236736
80	0xbd4c312a	-0.049851574
81	0xbd54333b	-0.05180667
82	0x3da53cf8	0.080682695
83	0xbd4a9722	-0.049460538
84	0x3c3271e3	0.0108914105
85	0xbd6267c6	-0.055274747
86	0x3d4002cd	0.04687767
87	0xbd6ae4d3	-0.05734713
88	0xbdb5b9c6	-0.08873324
89	0xbdae6fa7	-0.0851739
90	0x3d1b20b7	0.037872996
91	0xbd7c27b8	-0.061561316
92	0xbd099356	-0.033587776
93	0x3da3a926	0.07991247
94	0xbd204583	-0.03912879
95	0xbdaa8367	-0.08325844
96	0x3d4c1b9b	0.049831014
97	0x3d62a2c9	0.055331025
98	0x3dacd501	0.08439065
99	0x3ce0d1e4	0.027443834
100	0x3d9ebd41	0.07750941
101	0x3d42b13a	0.047532298
102	0x3cf9a07c	0.030472033
103	0xbd785721	-0.060629968
104	0xbdcd0367	-0.100104146
105	0xbd73d856	-0.059532486
106	0xbdd703b8	-0.10498756
107	0x3c641668	0.013921358
108	0xbce9ffe0	-0.028564394
109	0x3da9a0c5	0.082826175
110	0x3d5a35de	0.053274028
111	0x3b21e46f	0.0024702807
112	0xbdd77ca5	-0.10521821
113	0xbd87af42	-0.06625225
114	0x3d72ff1e	0.05932533
115	0xbdc5fb19	-0.09667034
116	0xbd513ce8	-0.051083475
117	0x3d315f0a	0.043303527
118	0x3b4bf2ec	0.0031120135
119	0xbdbbd95f	-0.091723196
120	0x3db8dfbf	0.09027051
121	0xbd1569c9	-0.036477838
122	0xbca87658	-0.020564243
123	0xbd83f18e	-0.06442557
124	0x3d3835ff	0.04497337
125	0xbcb820e1	-0.022476615
126	0xbc9a8d67	-0.018866254
127	0xbd9ee66a	-0.07758792
128	0x3da674a6	0.08127718
129	0xbd8d74ec	-0.06907067
130	0x3db414c5	0.08793024
131	0xbd97b96a	-0.07408412
132	0x3d8bf8e8	0.068345845
133	0xbbe020c0	-0.0068398416
134	0xbd826449	-0.06366784
135	0x3dcd6ebd	0.10030887
136	0xbd3c8e68	-0.046034247
137	0xbcbea4a4	-0.023271866
138	0x3d9df705	0.07713131
139	0x3d191839	0.037376616
140	0xbd8ec0cf	-0.06970369
141	0xbdbdf276	-0.092747614
142	0xbd9ab55d	-0.075541236
143	0x3d880a74	0.06642619
144	0xbd85b533	-0.06528702
145	0x3d880bb5	0.06642858
146	0xbc2cbc0a	-0.010542879
147	0xbcdbc246	-0.026826035
148	0x3d0ecaf5	0.034861524
149	0x3d38f28a	0.04515318
150	0x3d9f7185	0.07785324
151	0xbda646ab	-0.081189476
152	0xbdab1028	-0.08352691
153	0x3d9af11a	0.07565518
154	0xbc8b0f35	-0.016975025
155	0xbd6d8531	-0.05798835
156	0xbc17bed3	-0.009261805
157	0xbda7ca50	-0.08192885
158	0xbd3b59c6	-0.04573991
159	0xbc95400f	-0.018219022
160	0xbc801e73	-0.01563952
161	0xbd89ca3d	-0.06728027
162	0x3dc071bf	0.09396695
163	0x3d8f031f	0.06983017
164	0xbb578b44	-0.0032889405
165	0xbca7fefc	-0.020507328
166	0x3dd2f5db	0.103007995
167	0x3d9aae08	0.07552725
168	0x3d843b4d	0.06456623
169	0x3d6bb6d4	0.057547405
170	0xbdc6e9fb	-0.09712597
171	0x3c9847b3	0.018588876
172	0xbd15fe45	-0.036619443
173	0x3dc1a88f	0.09455978
174	0x3cb88c23	0.02252776
175	0x3da2af7f	0.079436295
176	0xbaef3494	-0.0018249922
177	0x3dd0438e	0.10169135
178	0xbd3e8021	-0.046508912
179	0xbd8d3fbe	-0.068969235
180	0x3d1963c7	0.03744867
181	0xbcb4ac8c	-0.022054933
182	0xbdacf514	-0.084451824
183	0xbd55b296	-0.052172266
184	0xbda72c3d	-0.08162735
185	0x3c3c5e2c	0.011497062
186	0x3cf60f0e	0.030036476
187	0x3d679286	0.05653622
188	0x3d164aac	0.036692306
189	0xbce2cea8	-0.027686432
190	0xbd3475ed	-0.044057775
191	0xbd57214e	-0.052521996
192	0x3d3bb1d6	0.045823894
193	0x3dc3dc2b	0.09563478
194	0x3dc14e29	0.09438736
195	0xbcce2a34	-0.025166608
196	0xbcada6fc	-0.021197788
197	0x3d6a8c1a	0.057262518
198	0xbc137b27	-0.00900153
199	0x3dd37b9c	0.10326311
200	0x3bd71455	0.006563703
201	0xbc5a5715	-0.013326426
202	0x3cac6361	0.021043481
203	0x3c8bcd4d	0.017065668
204	0xbdc59899	-0.09648246
205	0x3c0134e0	0.007886142
206	0xbd45f3bd	-0.04832815
207	0x3d24c068	0.040222555
208	0x3d82990b	0.06376847
209	0x3d9fdef6	0.07806198
210	0xbd4803df	-0.048831817
211	0xbc0fed82	-0.008784654
212	0xbd5297a3	-0.051414143
213	0xbc2ca693	-0.010537761
214	0x3dba9d11	0.09111989
215	0x3d9ba467	0.07599717
216	0x3d82d1bc	0.0638766
217	0xbc4bc575	-0.012437214
218	0xbd889fab	-0.06671079
219	0xbd59ebac	-0.05320327
220	0x3dd8e4fc	0.1059055
221	0xbd126a92	-0.035746165
222	0xbd6eb262	-0.058275588
223	0x3dd50ddc	0.10403034
224	0xbcb3de43	-0.021956569
225	0xbd341051	-0.043960873
226	0xbbe347e9	-0.0069360626
227	0xbc6216dd	-0.013799396
228	0xbd317892	-0.043327875
229	0x3d6c56e5	0.057700057
230	0xbdc85ebf	-0.097836964
231	0x3dbf7fcc	0.09350547
232	0xbda28d4a	-0.07937105
233	0xbd10f8f8	-0.035393685
234	0x3b6e3f36	0.0036353595
235	0xbc56ded1	-0.013114647
236	0xbd4e7bc2	-0.050410993
237	0xbcff0618	-0.031130835
238	0xbda03c68	-0.078240216
239	0x3c4dc8f8	0.012560122
240	0xbd61170a	-0.054953612
241	0xbce8d309	-0.028420942
242	0xbd0c565c	-0.034262046
243	0x3d49b120	0.049241185
244	0xbd35c913	-0.044381212
245	0x3d66aa5e	0.05631482
246	0xbd4966d1	-0.04917032
247	0xbd7b8b7f	-0.06141233
248	0x3d1db467	0.038502123
249	0x3d516f62	0.051131614
250	0x3d87924a	0.06619699
251	0x3da8cde2	0.08242394
252	0x3da4b4a4	0.08042267
253	0xbd8da3b8	-0.069159925
254	0x3d7d6414	0.06186302
255	0x3d3d3a86	0.04619839

conv_block_1.2.bias f4 [10]
0	0xbdd68a5d	-0.104756095
1	0xbc5ba5a0	-0.013406187
2	0x3cf80fb2	0.030280922
3	0x3d95fb73	0.07323351
4	0x3db00c95	0.0859615
5	0x3c895934	0.016766168
6	0xbc5c5120	-0.013447076
7	0x3c3912bf	0.011295973
8	0x3c45f459	0.012082183
9	0xbdab6435	-0.08368722

conv_block_2.0.weight f4 [10, 10, 3, 3]
0	0x3dbd67e3	0.092483304
1	0xbd714808	-0.058906585
2	0x3db7d023	0.08975246
3	0xbd65f42c	-0.056141064
4	0xbd098038	-0.033569545
5	0xbda8309c	-0.082123965
6	0xbdbbea20	-0.09175515
7	0x3dcc6775	0.0998067
8	0x3d7e3ab6	0.06206771
9	0xbdc2662e	-0.094921455
10	0xb9803b85	-0.00024458408
11	0xbd35414b	-0.04425172
12	0xbdcbbc65	-0.09948043
13	0xbdb002a3	-0.08594253
14	0xbd810f8d	-0.06301794
15	0x3d4df69c	0.050284013
16	0x3d017483	0.031605255
17	0x3d25dd7b	0.040494423
18	0x3d855092	0.06509508
19	0x3cb7c4da	0.022432733
20	0x3d539245	0.051653165
21	0xbd0f64a2	-0.03500808
22	0x3da4ccf2	0.08046903
23	0x3daff86b	0.08592304
24	0xbd653dde	-0.055967204
25	0xbd450804	-0.048103347
26	0x3d59a406	0.05313494
27	0xbd6ff9ac	-0.058587715
28	0xbd61822f	-0.055055793
29	0xbb1a0e32	-0.0023506996
30	0xbdd307d7	-0.1030423
31	0x3da5423b	0.08069273
32	0x3db66b03	0.089071296
33	0x3dd37393	0.103247784
34	0x3cc5ee80	0.024161577
35	0xbd819d5f	-0.06328844
36	0x3d9e127e	0.07718371
37	0x3c62743f	0.013821661
38	0xbb4e2b20	-0.003145881
39	0x3d1de6ae	0.03855007
40	0x3d299d95	0.041410048
41	0x3dcb73a7	0.09934168
42	0x3d8aa3e2	0.067695394
43	0xbd64e161	-0.055879
44	0xbd6b507c	-0.057449803
45	0xbd20c485	-0.039249916
46	0xbd2a8ad6	-0.04163631
47	0x3c22400b	0.009902964
48	0xbdc0766c	-0.09397587
49	0xbbadd405	-0.0053048157
50	0x3c3d736f	0.011563166
51	0x3c42f8e0	0.011900157
52	0x3c180f00	0.00928092
53	0x3d5ca334	0.05386658
54	0x3d06c4ed	0.032902647
55	0x3db2806e	0.08715902
56	0x3d447cc6	0.047970556
57	0x3d87e097	0.06634634
58	0xbcec35a8	-0.028834179
59	0xbd7a6fba	-0.061141707
60	0x3d1eb60a	0.038747825
61	0xbcc27828	-0.023738936
62	0xbdbd3ba2	-0.0923989
63	0x3dba4d58	0.090967834
64	0x3c10971a	0.008825088
65	0x3dce75a7	0.10081034
66	0x3da9898f	0.0827819
67	0xbd7cf381	-0.06175566
68	0x3dc03d51	0.09386695
69	0x3d1254d6	0.035725437
70	0xbcffbefe	-0.031219002
71	0x3cda2096	0.026626866
72	0xbdd2c869	-0.102921315
73	0x3a0a8442	0.000528399
74	0xbd403f5c	-0.046935424
75	0xbc7c06f3	-0.015382516
76	0x3d36ad49	0.04459885
77	0xbc780abe	-0.01513928
78	0x3d9d7163	0.076876424
79	0x3d4617aa	0.04836241
80	0x3dcaef2e	0.09908901
81	0xbd10c844	-0.03534724
82	0x3daf8733	0.08570709
83	0x3d6a33be	0.05717825
84	0xbd1aed24	-0.03782381
85	0x3dc6a4e1	0.09699417
86	0xbd8d70f1	-0.069063075
87	0x3c32668f	0.01088871
88	0x3dbd3408	0.0923844
89	0xb78ca900	-1.6767997e-05
90	0xbd02a0bc	-0.03189157
91	0xbdaca110	-0.08429158
92	0x3d8ccaa0	0.06874585
93	0x3cc09ecf	0.023513226
94	0x3dca4749	0.09876878
95	0x3dc8740e	0.09787761
96	0xbd233d8a	-0.03985361
97	0xbd08b852	-0.033378907
98	0x3ca8b531	0.020594211
99	0xbd517624	-0.05113806
100	0x3cde9bd8	0.027173921
101	0x3dd5729b	0.1042225
102	0xbd2c424f	-0.042055424
103	0x3a485558	0.0007642112
104	0x3c42c605	0.011888032
105	0xbdaaeaa7	-0.08345538
106	0x3b937111	0.0044995626
107	0x3bbae2b5	0.005703295
108	0x3d3d93f8	0.046283692
109	0xbd321e74	-0.043486074
110	0x3d42ee4a	0.04759053
111	0x3d3ac509	0.045598064
112	0xbcc4a79e	-0.024005707
113	0xbce02737	-0.02736245
114	0xbd8a101c	-0.06741354
115	0x3cd7dbe2	0.026349965
116	0xbdcef0e3	-0.10104539
117	0x3d2e5352	0.04255993
118	0xbd9a0a05	-0.07521442
119	0x3d85bb67	0.06529885
120	0x3d5e9a3e	0.054346316
121	0x3d95f81f	0.07322716
122	0x3dc15c7b	0.094414674
123	0xbdcc6b2f	-0.09981381
124	0x3db1bb8e	0.08678351
125	0xbd0c1217	-0.03419694
126	0xbd9caa9a	-0.07649727
127	0xbd72d0e0	-0.05928123
128	0x3d7334d3	0.05937655
129	0xbd3f43d4	-0.046695545
130	0x3d5ab226	0.05339255
131	0x3ca49508	0.020090595
132	0xbc0b9568	-0.008519508
133	0xbd80e18a	-0.06293018
134	0xbdaa3ee9	-0.083127804
135	0x3daa132b	0.08304437
136	0x3d6dd230	0.05806178
137	0xbc86178b	-0.016368648
138	0xbd928e65	-0.07156066
139	0x3dcc0632	0.09962119
140	0x3d6cd973	0.057824563
141	0xbda085e0	-0.07838035
142	0xbb6fcb93	-0.0036589846
143	0xbd2f82a7	-0.04284921
144	0x3d9f6fdf	0.077850096
145	0x3dd0ff40	0.10204935
146	0xbdd4eb19	-0.10396404
147	0xbda9b534	-0.08286515
148	0x3bfb0d8e	0.007661528
149	0x3bb390b8	0.0054798983
150	0x3dcf2cd9	0.10115976
151	0xbd998467	-0.07495957
152	0xbb91b2a7	-0.004446346
153	0x3d8ada41	0.0677991
154	0xbcb0c635	-0.021578887
155	0x3d98f933	0.07469406
156	0xbd097de5	-0.033567328
157	0x3d924c15	0.07143418
158	0xbd3c10ce	-0.045914464
159	0xbd84e785	-0.06489471
160	0x3cad6771	0.021167489
161	0xbdc02002	-0.09381105
162	0x3dc7ed39	0.097620435
163	0xbd0e7d59	-0.03478751
164	0xbd9e5de5	-0.07732753
165	0x3d323b8c	0.04351382
166	0x3c3114f4	0.010808218
167	0x3d3e8cd4	0.046521023
168	0xbdb24c1f	-0.08705925
169	0x3c997c7d	0.018736118
170	0x3d6337d8	0.05547318
171	0xbdb59d8b	-0.088679396
172	0x3dadf517	0.08494013
173	0x3d440b02	0.04786206
174	0x3bd021a4	0.0063516665
175	0xbca0de1e	-0.019637164
176	0x3dd4bef4	0.10387984
177	0x3d8a78cd	0.06761322
178	0xbcff6deb	-0.031180343
179	0x3d800312	0.062505856
180	0xbc23ff08	-0.010009535
181	0xbcec794c	-0.028866433
182	0xbd43a35d	-0.047763217
183	0xbd7ff03f	-0.062484976
184	0xbd86ea93	-0.0658771
185	0x3d933f39	0.07189793
186	0x3da7b91d	0.081896044
187	0x3cdadec4	0.026717551
188	0xbd4e9eda	-0.05044446
189	0x3d961e09	0.073299475
190	0xbd39511c	-0.045243368
191	0xbd93a29a	-0.07208748
192	0x3d5b0106	0.053467773
193	0xbd3a504b	-0.04548673
194	0x3da676ff	0.081281655
195	0xbd352e10	-0.04423338
196	0xbd754815	-0.059883196
197	0xbb8e2440	-0.0043378174
198	0x3db2069f	0.08692669
199	0xbba4f5b0	-0.005034171
200	0x3c32ed00	0.010920763
201	0xbcc91230	-0.024544805
202	0xbd6c6220	-0.057710767
203	0xbdb94d25	-0.09047917
204	0x3da2f009	0.07955939
205	0x3d3e4e6a	0.0464615
206	0x3b94f9b0	0.0045463666
207	0x3d97cc77	0.074120454
208	0x3d6bf162	0.057603247
209	0x3d76f7d6	0.06029495
210	0xbd9cc27a	-0.07654281
211	0x3d860027	0.06542998
212	0xbd4bda58	-0.049768776
213	0xbd77048e	-0.060307078
214	0x3d576cee	0.052594118
215	0xbdcd704a	-0.10031183
216	0x3db85bdd	0.090018965
217	0xbc95a1cc	-0.018265627
218	0x3c6e1f60	0.014533848
219	0x3d26dbb6	0.040736876
220	0x3d700026	0.05859389
221	0xbd248634	-0.04016705
222	0xbd47390b	-0.048638385
223	0x3c6403c0	0.01391691
224	0xbbf13c70	-0.007361941
225	0xbd0ce48e	-0.034397654
226	0xbd9662e4	-0.07343081
227	0xbcb64268	-0.022248462
228	0xbd3cd942	-0.04610563
229	0x3da4b13f	0.080416195
230	0xbb7fd9c0	-0.0039039701
231	0x3d1193fa	0.035541512
232	0x3d8e9589	0.06962115
233	0xbcaeace0	-0.021322668
234	0x3c52c8a0	0.012865216
235	0xbc47d958	-0.012197815
236	0xbd9debb1	-0.0771097
237	0xbdce1cd8	-0.10064095
238	0x3cd390b4	0.025825836
239	0x3d7ff206	0.06248667
240	0xbd5d75ac	-0.0540673
241	0x3c2fc428	0.01072792
242	0x3d47ce6a	0.048780836
243	0xbd83768c	-0.064190954
244	0xbdba8c25	-0.09108762
245	0xbc34a458	-0.011025511
246	0xbd26f7ae	-0.04076355
247	0xbd8957bc	-0.06706187
248	0xbce22f94	-0.027610578
249	0xbd2c6ec0	-0.042097807
250	0xbc0bdb08	-0.008536108
251	0x3c4b04a8	0.012391247
252	0x3d74deb2	0.05978269
253	0xbcdab78c	-0.02669885
254	0x3d7b8afe	0.06141185
255	0xbdb946d0	-0.090467095

conv_block_2.0.bias f4 [10]
0	0xbdcd6ab8	-0.100301206
1	0x3d66a98d	0.05631404
2	0xbd819c78	-0.06328672
3	0x3d97454b	0.073862635
4	0xbd9c720a	-0.07638939
5	0xbdc0511e	-0.09390472
6	0x3c617d47	0.013762779
7	0x3c1a0dbc	0.009402689
8	0x3cb2aeb5	0.021811822
9	0x3d7f9e4a	0.062406816

conv_block_2.2.weight f4 [10, 10, 3, 3]
0	0x3ad2b4c0	0.0016075596
1	0x3ae9a440	0.001782544
2	0x3db7ecfd	0.08980749
3	0xbdcb6c0e	-0.09932719
4	0xbc8294b4	-0.015940048
5	0xbd2f4388	-0.042789012
6	0x3cdd3adc	0.027005605
7	0x390d9000	0.00013500452
8	0xbdd103af	-0.10205781
9	0x3d46662b	0.04843728
10	0x3da45cbf	0.080255024
11	0x3daa1395	0.08304516
12	0xbd763ae0	-0.06011474
13	0x3d9bc60c	0.07606134
14	0x3dbdb6b4	0.092633635
15	0x3d5974cd	0.053089906
16	0x3dbff37c	0.09372613
17	0xbd335550	-0.043782532
18	0xbcc59204	-0.024117477
19	0xbd1f9916	-0.038964354
20	0xbd02f814	-0.031974867
21	0x3d0cf9da	0.034417965
22	0xbdc6d67c	-0.097088784
23	0x3db23c7d	0.087029435
24	0xbd98eac2	-0.074666515
25	0x3c6c17c8	0.014409967
26	0xbdb9871e	-0.09058975
27	0xbdaaac7b	-0.08333679
28	0x3dc923ca	0.09821279
29	0x3d5d76da	0.054068424
30	0x3d53cdcd	0.05170994
31	0xbd0eff16	-0.034911238
32	0xbdcc7f9b	-0.09985276
33	0x3db5b94b	0.088732325
34	0xbd250c76	-0.040295087
35	0xbd866524	-0.0656226
36	0x3dc51869	0.096237965
37	0xbd72b410	-0.059253752
38	0x3cb78f74	0.022407271
39	0xbd966d58	-0.073450744
40	0xbd1a294a	-0.037637033
41	0xbca2834c	-0.019837998
42	0x3c931b90	0.017957479
43	0x3d7183a6	0.05896344
44	0x3d3891e2	0.045061
45	0xbdad0c29	-0.08449585
46	0x3d9ccd7e	0.07656382
47	0xbd6c32bd	-0.057665575
48	0x3d7b8fb7	0.061416354
49	0x3cb8cdc0	0.022559047
50	0x3bab79bf	0.005233019
51	0x3bcded2b	0.006284376
52	0x3db2c347	0.087286524
53	0xbd9abb01	-0.075551994
54	0xbcd7e5e9	-0.026354747
55	0x3d90fd69	0.07079584
56	0x3bde0216	0.006775151
57	0x3c690fec	0.0142249875
58	0x3d57cac6	0.052683614
59	0xbda02d62	-0.07821156
60	0xbcbb628a	-0.022874136
61	0x3d7d0313	0.06177051
62	0xbd26861d	-0.040655244
63	0x3c95f30d	0.018304372
64	0xbc048ca2	-0.00809017
65	0xbbd1c787	-0.0064019593
66	0xbc6c31e6	-0.014416194
67	0x3dab522f	0.08365285
68	0x3d126f51	0.03575069
69	0xbcec23ce	-0.028825667
70	0x3d28f3c0	0.041248083
71	0x3cc33c7f	0.023832558
72	0x3b91b980	0.004447162
73	0x3b2afc40	0.0026090294
74	0x3d8d8b23	0.06911304
75	0xbd9f3362	-0.07773472
76	0x3bbf53e0	0.005838856
77	0x3d9266b3	0.071484946
78	0x3c926734	0.017871477
79	0xbdc5aa4e	-0.09651624
80	0x3ce426bc	0.027850501
81	0xbc6b3ae7	-0.014357305
82	0x3d21e036	0.039520465
83	0xbc6cd4ef	-0.014455064
84	0x3c9a66cb	0.018847844
85	0xbbc73d67	-0.006080318
86	0xbd2d843f	-0.042362448
87	0xbc59478f	-0.01326169
88	0xbc1ba8d4	-0.009500701
89	0x3c9ffcd7	0.019529743
90	0x3dcfa047	0.10137992
91	0xbc7639eb	-0.015028457
92	0x3c17f17b	0.009273882
93	0x3d925510	0.07145131
94	0xbd26fc29	-0.040767822
95	0xbdbf00d1	-0.093263276
96	0xbd9cb394	-0.07651439
97	0xbd6ba714	-0.057532385
98	0x3d8d8ed5	0.06912009
99	0xbdb48ea2	-0.088162675
100	0xbb70d754	-0.003674944
101	0xbd6c698d	-0.05771785
102	0xbda8a364	-0.08234289
103	0x3c8a9c57	0.016920252
104	0xbdc38a8f	-0.09547912
105	0xbd2d76af	-0.042349514
106	0x3dccc7b8	0.09999031
107	0xbd062e98	-0.03275928
108	0xbd8730b1	-0.06601084
109	0x3d70965a	0.058737136
110	0xbd26e344	-0.04074408
111	0x39512c00	0.00019948184
112	0xbdd15833	-0.10221901
113	0x3dcfdba3	0.10149314
114	0x3d932f3b	0.07186743
115	0xbbd7d2d0	-0.00658641
116	0xbda98da6	-0.082789704
117	0xbc42b64b	-0.011884282
118	0x3d60bb39	0.05486605
119	0xbc61296c	-0.013742786
120	0x3dc2a51c	0.09504148
121	0xbccf00b5	-0.025268892
122	0xbd658734	-0.056037143
123	0xbdcc6a0c	-0.09981164
124	0x3d6e206f	0.0581364
125	0xbd8c28d3	-0.06843724
126	0xbdbb9a91	-0.091603406
127	0x3dafd486	0.085854575
128	0x3dac88d8	0.084245384
129	0x3b6c2b06	0.0036036386
130	0xbc5df526	-0.0135472175
131	0x3d8436ab	0.064557396
132	0xbd5bfe7a	-0.053709485
133	0x3d6832ed	0.05668919
134	0x3cf23d48	0.029570237
135	0xbc7e148d	-0.015507829
136	0xbd812c99	-0.063073345
137	0xbd57fda9	-0.052732144
138	0x3c104146	0.008804625
139	0xbb40261b	-0.0029319588
140	0x3d331b9f	0.043727513
141	0x3cfe2325	0.031022618
142	0xbdc18818	-0.09449786
143	0x39cb6aca	0.0003879874
144	0x3c918eb2	0.017768238
145	0x3dcbfeef	0.09960734
146	0x3b5ed2d1	0.0034000168
147	0x3d9bea90	0.076130986
148	0x3d37d9d5	0.044885475
149	0x3cbaf5a5	0.02282221
150	0xbc96eff4	-0.018424965
151	0x3d9b98e8	0.07597524
152	0xbd707605	-0.058706302
153	0xbdbaa722	-0.09113909
154	0xbd9ecab4	-0.07753506
155	0xbd8b2f74	-0.0679616
156	0x3dc3b4ed	0.09555993
157	0x3d3bdaa1	0.045862798
158	0xbcbe2d92	-0.023215089
159	0x3dabbe88	0.0838595
160	0x3c85c19a	0.016327668
161	0x3c719a36	0.014746239
162	0xbd2bd099	-0.04194698
163	0xbd98e8a3	-0.07466247
164	0xbd87077d	-0.06593225
165	0xbb39a7c3	-0.0028328754
166	0xbd8b0fae	-0.067901
167	0xbd65bfbc	-0.056091055
168	0xbd79cd39	-0.06098673
169	0x3d5f2304	0.054476753
170	0x3d7fca7c	0.062448964
171	0x3d3c82d2	0.046023197
172	0x3d687b25	0.056758065
173	0x3c85c094	0.01632718
174	0x3c33a700	0.010965109
175	0x3c183b13	0.009291428
176	0x3bb2cfd0	0.005456902
177	0xbdda8e3c	-0.1067166
178	0x3d8e8c98	0.0696041
179	0x3d77d6a5	0.060507435
180	0xbdc00a4a	-0.093769625
181	0x3dd2f05b	0.102997504
182	0x3dd42af3	0.103597544
183	0x3d29f1b2	0.041490264
184	0x3c99f90c	0.018795513
185	0x3d1d3412	0.038379736
186	0x3d9fcceb	0.07802757
187	0x3b852ed0	0.0040644184
188	0xbcd3a07c	-0.02583336
189	0xbd831e10	-0.06402218
190	0xbcacc834	-0.021091558
191	0x3db32c31	0.08748663
192	0xbd908dc6	-0.07058291
193	0xbbb6d200	-0.005579233
194	0x3db5e14b	0.08880862
195	0x3d658ba2	0.056041367
196	0xbd6880c3	-0.05676342
197	0xbdb1be3d	-0.08678863
198	0x3b285600	0.0025686026
199	0xbda3f412	-0.08005537
200	0xbdd093dd	-0.10184453
201	0xbda91e65	-0.082577504
202	0x3d84f3dd	0.06491826
203	0x3db14daf	0.08657395
204	0x3bddc5f0	0.0067679808
205	0xbd92e656	-0.07172839
206	0x3daabbc5	0.083365954
207	0x3d0b4146	0.033997796
208	0xbd384644	-0.044988886
209	0xbd429e9c	-0.047514543
210	0xbd2484a4	-0.04016556
211	0x3caf2ae4	0.021382757
212	0xbcaa0c48	-0.02075781
213	0xbd8527b6	-0.06501715
214	0xbd1a06f4	-0.037604287
215	0xbc805e70	-0.015670031
216	0xbd43a1fe	-0.04776191
217	0xbd95aa65	-0.07307891
218	0xbd92538d	-0.07144842
219	0xbbd57750	-0.0065144673
220	0x3d170e96	0.036879145
221	0xbd73c6ee	-0.059515886
222	0xbdbde978	-0.09273046
223	0x3abc6180	0.0014372319
224	0xbdbf0bc6	-0.093284175
225	0xbc3cd900	-0.011526346
226	0xbd937d02	-0.07201578
227	0xbc9e556c	-0.019327842
228	0x3dccaf0b	0.09994324
229	0xbd6ef03e	-0.05833458
230	0xbbfffbc0	-0.0078119934
231	0xbd5e358b	-0.05425028
232	0x3d9e8c31	0.07741583
233	0xbbb6c800	-0.005578041
234	0x3dba5b11	0.09099401
235	0x3d0a6256	0.033785187
236	0xbd9edd65	-0.077570714
237	0x3c1f4fe8	0.009723641
238	0xbd8d3f70	-0.06896865
239	0x3adf2780	0.0017025322
240	0x3d09192a	0.033471264
241	0xbcf42bb0	-0.029805988
242	0xbc259830	-0.010107085
243	0xbc214fe0	-0.009845704
244	0xbdc508a6	-0.0962079
245	0xbc52e630	-0.012872264
246	0xbc4eea50	-0.012629107
247	0xbcd1bdf8	-0.02560328
248	0x3d9997bb	0.074996434
249	0x3a908ec0	0.0011028871
250	0xbd91eaf7	-0.07124894
251	0x3da3084f	0.07960569
252	0x3d8369e5	0.06416682
253	0xbd0cc504	-0.034367576
254	0xbd47d0be	-0.048783056
255	0xbd9fbf77	-0.07800191

conv_block_2.2.bias f4 [10]
0	0xbdce0a59	-0.100605674
1	0xbc9ca0eb	-0.0191197
2	0xbd10b7f8	-0.035331696
3	0xbc959990	-0.0182617
4	0x3c0a9dc1	0.008460463
5	0x3dd4e6f9	0.10395617
6	0x3d81f7f0	0.063461185
7	0xbcf78b40	-0.030217767
8	0x3b03fecd	0.0020140887
9	0x3dc70a6c	0.09718785

classifier.1.weight f4 [3, 1690]
0	0x3cbeefb1	0.023307653
1	0x3ca0a585	0.019610176
2	0x3af81e0e	0.0018929855
3	0x3c53f5de	0.012937037
4	0xbbd78554	-0.0065771732
5	0x3b66b644	0.0035203854
6	0xbc4d5ca9	-0.012534299
7	0xbc929b8f	-0.017896442
8	0xbbf2a9e6	-0.0074055074
9	0xbc7520e0	-0.014961451
10	0xbc2f856e	-0.010712964
11	0xbc1a1699	-0.009404802
12	0x3c8d94d0	0.017282873
13	0x3cb5980f	0.022167234
14	0x3c91f17b	0.017815342
15	0x3b3f2673	0.0029167205
16	0x3c2d7ea4	0.0105892755
17	0x3c1c0302	0.0095222015
18	0x3c597e17	0.013274691
19	0x3c0573c2	0.008145275
20	0xbc8da137	-0.017288787
21	0xbca35db6	-0.019942146
22	0x3c81b01c	0.015831046
23	0xbc87f3a8	-0.016595677
24	0x3c22ca8e	0.009935988
25	0x3be76295	0.0070613124
26	0x3b786d48	0.0037906934
27	0x3c3d4f9a	0.011554623
28	0x3bdb9ff4	0.0067024175
29	0xbcb38324	-0.021913119
30	0xba09ab20	-0.0005251635
31	0xbc20adee	-0.009807093
32	0x3c3dc82a	0.011583367
33	0xbb226a50	-0.0024782605
34	0x3c4cc2b6	0.012497595
35	0xb90dbd80	-0.00013517402
36	0x3ba9dfa0	0.005184129
37	0x3c44e9ee	0.012018664
38	0xbc45d1a3	-0.012073907
39	0x3ca225e7	0.019793464
40	0xbca047d4	-0.0195655
41	0x3c1dacaa	0.009623686
42	0x3c1a20be	0.00940722
43	0xbc9be022	-0.019027773
44	0xbc829bf9	-0.015943514
45	0x3cb4e749	0.022082942
46	0xbcc6e109	-0.024277227
47	0x3c82e27b	0.015977135
48	0x3cadf8b3	0.021236753
49	0xbcb8bf67	-0.022552205
50	0x3cc0c91f	0.023533402
51	0x3c3f5f72	0.011680471
52	0xbb0efc9c	-0.0021818047
53	0x3c15982a	0.009130517
54	0xbc0c7534	-0.008572865
55	0xbb812cc4	-0.003942104
56	0xbc02d230	-0.007984683
57	0xbcd5050d	-0.026003385
58	0x3c38715e	0.011257498
59	0x3c75f0b2	0.0150109995
60	0x3c8eada7	0.017416788
61	0xbc8eb14e	-0.01741853
62	0x3c5f1c02	0.013617517
63	0x3aceded0	0.0015782956
64	0x3b864879	0.004097995
65	0x3c15e818	0.009149574
66	0xbc9fd257	-0.019509478
67	0x3cc42c99	0.023947047
68	0xbc2aa1bf	-0.01041454
69	0xbbfdf0cc	-0.0077496525
70	0xbc0b4574	-0.008500446
71	0x393f6380	0.00018252246
72	0xbcbcd832	-0.023052309
73	0x3c73338a	0.014843831
74	0xbc2f907e	-0.010715602
75	0x3b0b928c	0.0021297066
76	0x3c206c20	0.009791404
77	0x3c05ac05	0.008158688
78	0x3c64675e	0.01394066
79	0xbc6a288c	-0.014291894
80	0xbbed8c78	-0.007249411
81	0x3ca39095	0.019966403
82	0xbc80eb38	-0.015737161
83	0xbc95d522	-0.018290106
84	0xbc83fc53	-0.016111529
85	0x3c52924e	0.012852265
86	0xbbb3d010	-0.0054874495
87	0xbc90da3b	-0.017682185
88	0xbca7a5a8	-0.020464733
89	0xbc8f382b	-0.017482838
90	0xbccd0df1	-0.025031062
91	0xbc8a0ee3	-0.016852802
92	0x3bacf84c	0.0052786227
93	0xbca1e070	-0.01976034
94	0xbc76f973	-0.015074122
95	0xbb554d13	-0.003254716
96	0xbc17104f	-0.009220197
97	0x3a19d68c	0.0005868457
98	0x3c97fb4b	0.018552443
99	0xbc8ed9e9	-0.017437892
100	0x3c3ddf94	0.01158895
101	0xbc5faf15	-0.013652583
102	0xbc43aa4b	-0.0119424565
103	0x3a52a64d	0.0008035645
104	0xbb854c75	-0.0040679523
105	0x3c98cec3	0.01865328
106	0x3c5b5f91	0.013389484
107	0xbc76ffb3	-0.015075612
108	0x3ccfec24	0.025381155
109	0x3bcc9fe4	0.0062446464
110	0x3cc06b69	0.023488717
111	0x3c4db8ca	0.012556264
112	0xbc521fcd	-0.012824965
113	0xbc399ce3	-0.011328909
114	0x3bb3b8d5	0.00548468
115	0x3c638404	0.013886455
116	0x3b9ea37c	0.004841266
117	0x3c0b96ea	0.008519867
118	0xbc1dee1c	-0.009639289
119	0x3c1459ac	0.009054583
120	0x3ba5991a	0.0050536515
121	0x3c0a8082	0.00845349
122	0xbb580680	-0.0032962859
123	0xb9ece19a	-0.00045181514
124	0x3ca4a856	0.0200998
125	0xbca4a567	-0.020098401
126	0xbc856802	-0.016284946
127	0xbcd6bc54	-0.026212849
128	0xbc81f7d0	-0.015865237
129	0xbcad73f3	-0.021173453
130	0xbc25bcf6	-0.010115853
131	0xbc99b967	-0.018765165
132	0x3be450b3	0.006967628
133	0xbc1bc5f6	-0.009507647
134	0xbc9130e5	-0.01772351
135	0xbc2e3d6f	-0.010634764
136	0x3b030699	0.0019992946
137	0xbbf4cc3f	-0.007470637
138	0x3ccc1dea	0.024916608
139	0x3c35d8b2	0.0110990275
140	0x3c41014c	0.011780094
141	0x3cbff7bb	0.023433557
142	0xbcdb2d4c	-0.026754998
143	0x3affaa50	0.0019505713
144	0x3c9eb889	0.019375103
145	0x3abf9241	0.0014615731
146	0x3b51839d	0.0031969317
147	0xbc0bebed	-0.008540136
148	0xbc984217	-0.018586202
149	0xbbcd9a3b	-0.006274489
150	0x3c9b8880	0.018985987
151	0x3c849749	0.01618542
152	0xbcad330c	-0.021142505
153	0xba2706fa	-0.0006371584
154	0xbc1f7874	-0.009733308
155	0x3ca73e3d	0.02041542
156	0xb8d10d30	-9.968353e-05
157	0x3cc039b3	0.023465013
158	0xbc351b6b	-0.0110539
159	0x3c96126a	0.018319327
160	0xbc2f4e9a	-0.010699892
161	0x3b1faaed	0.0024363354
162	0xbb3c02ab	-0.0028688114
163	0xbce4c66b	-0.027926644
164	0x3c873957	0.016506834
165	0xbc69714b	-0.014248203
166	0xbc040d27	-0.008059776
167	0x3ca4b832	0.020107362
168	0xbb18bb0a	-0.0023304843
169	0x3ccfe6f5	0.025378684
170	0xbca79099	-0.020454692
171	0x3c9f6e4d	0.019461775
172	0x3c905a48	0.017621174
173	0x3c456278	0.012047403
174	0xbc523bf4	-0.012831677
175	0xbad561a0	-0.0016279705
176	0xbc9918f6	-0.01868866
177	0xbc4c6300	-0.012474775
178	0xbc2be3a1	-0.010491283
179	0x3c5e70f7	0.013576738
180	0x3cac49b7	0.021031244
181	0xba938104	-0.001125366
182	0x3bede94d	0.0072604776
183	0x3cdbf48d	0.02685001
184	0xbc863f95	-0.01638774
185	0x3be7e4fc	0.0070768576
186	0x3b90eaae	0.0044225072
187	0xbc0a2b25	-0.008433138
188	0xb8f1ab22	-0.000115236515
189	0x3b14cdb9	0.0022705628
190	0x3c8f9dff	0.017531393
191	0xbc7d81ac	-0.015472811
192	0x3ccc951f	0.02497345
193	0xbc676ccc	-0.01412506
194	0x3c193c91	0.009352819
195	0xbc63c6b6	-0.013902357
196	0x3b35d4f7	0.0027745345
197	0x3c7b6b4b	0.015345405
198	0x3ce341f9	0.02774142
199	0xbb601069	-0.0034189469
200	0x3bc57358	0.006025713
201	0x3c90c515	0.017672101
202	0x3c857820	0.016292632
203	0xbca4349a	-0.020044614
204	0x39fc571a	0.0004813008
205	0xbb19f74a	-0.0023493343
206	0x3c9b0e99	0.01892786
207	0xbbfe27c6	-0.007756206
208	0xbb798fa4	-0.0038080001
209	0x3a787d58	0.0009479127
210	0xbbb4ecbd	-0.0055213855
211	0xbc6d0834	-0.014467288
212	0xbc15c70c	-0.009141695
213	0xbbea57a7	-0.0071515623
214	0xba3cb167	-0.0007198066
215	0xbc9d2d99	-0.019186782
216	0x3c27d9af	0.010244771
217	0xbc8c9edd	-0.017165596
218	0xbc22d901	-0.009939433
219	0xbc93349c	-0.017969422
220	0x3c06f646	0.008237427
221	0xbc9b1e5b	-0.018935373
222	0xbc98e0ab	-0.018661818
223	0xbc4d323e	-0.012524186
224	0x3ccbbca2	0.02487022
225	0x3c3d91ef	0.011570438
226	0x3c8ad525	0.016947338
227	0xbc9377a0	-0.018001378
228	0x3a6a38e7	0.0008934871
229	0xba3ed167	-0.0007279128
230	0x3c871218	0.01648812
231	0xbc05260a	-0.008126745
232	0x3c814bbc	0.015783183
233	0xbbe89cf9	-0.0070987907
234	0x3c61b0f4	0.013775099
235	0xbc8acb6e	-0.016942706
236	0xbc9e304b	-0.019310137
237	0xbbe7d354	-0.007074753
238	0xbbf2a7f2	-0.0074052745
239	0x3cba5d53	0.022749579
240	0x3cd4f553	0.025995886
241	0x3caff4d8	0.021479055
242	0xbbda669a	-0.006665063
243	0x3c0e0d94	0.008670229
244	0xbc8c7c7b	-0.0171492
245	0x3b9e9c4e	0.0048404103
246	0x3c816c03	0.015798574
247	0x3c00c6d3	0.007859903
248	0x3c39ab64	0.011332367
249	0x3ca6c448	0.020357266
250	0x3cad293c	0.021137826
251	0xbc97473f	-0.01846659
252	0x3c90f50c	0.017694972
253	0xbc7a5c61	-0.015280814
254	0xbc6c2f57	-0.014415584
255	0xbbebf996	-0.007201384

classifier.1.bias f4 [3]
0	0x3c925601	0.017863275
1	0xbc5df899	-0.01354804
2	0x3a95be14	0.0011424446
