models/05_going_modular_script_mode_tinyvgg_model.pth (torch, 37090 bytes, 10 tensors)

conv_block_1.0.weight f4 [10, 3, 3, 3]
0	0xbe13de33	-0.14440231
1	0xbd7ce6c8	-0.061743528
2	0x3daa57f9	0.08317561
3	0x3d97075b	0.0737445
4	0x3be1d7ae	0.006892166
5	0xbe2c5d3f	-0.16832446
6	0x3e06910a	0.13141266
7	0xbdc96e9e	-0.09835552
8	0x3e37aeb0	0.17937732
9	0x3da8f46a	0.08249743
10	0x3e0885bd	0.13332267
11	0xbd6fe2dc	-0.05856596
12	0xbd630350	-0.05542308
13	0x3e2c8aa0	0.16849756
14	0xbe271a79	-0.16318692
15	0x3d7dcbd7	0.061961975
16	0xbe4507cf	-0.1924126
17	0x3d892349	0.06696183
18	0x3e2f3778	0.17111003
19	0x3e36e567	0.17860948
20	0x3e00879c	0.12551731
21	0xbe0c86d1	-0.13723303
22	0x3d0b674a	0.03403405
23	0x3dac6cf5	0.084192194
24	0xbd4fb716	-0.050711714
25	0x3e2a3cc1	0.16624738
26	0x3d76603e	0.060150377
27	0x3e30d542	0.17268851
28	0xbd31104a	-0.043228425
29	0xbdf635ec	-0.120220035
30	0xbc92be4d	-0.017913008
31	0xbdc55271	-0.09634865
32	0xbdec1d96	-0.115290806
33	0xbe2e1d84	-0.17003447
34	0x3e14d2e4	0.14533573
35	0x3e2fe4f3	0.17177181
36	0xbc3f7136	-0.011684706
37	0x3d01bf5c	0.031676635
38	0xbb2ead84	-0.0026653716
39	0xbe2c7d87	-0.1684476
40	0x3cca61e1	0.024704875
41	0x3be0262f	0.0068404893
42	0x3dff57e4	0.12467936
43	0x3e2e5def	0.1702802
44	0xbe1d155a	-0.15340176
45	0xbd9e5d6c	-0.077326626
46	0x3cf983d5	0.03045837
47	0xbe4a2b98	-0.19743192
48	0x3d616faa	0.05503813
49	0x3dd485eb	0.10377105
50	0x3c809363	0.01569528
51	0x3deda1af	0.11603104
52	0xbdc5e51f	-0.09662842
53	0xbdc867bd	-0.097854115
54	0xbe2af2a1	-0.16694118
55	0xbe436309	-0.19080748
56	0x3e077fe8	0.13232386
57	0xbd3fe529	-0.046849404
58	0xbe1f5d9d	-0.15563054
59	0x3d062843	0.03275324
60	0x3d140b57	0.036143627
61	0xbe35ae67	-0.1774231
62	0x3dd569fe	0.10420607
63	0x3d62a926	0.055337094
64	0x3d574a6f	0.05256122
65	0x3e01a0e7	0.12659036
66	0xbcfc72e9	-0.030816512
67	0xbc5e4bfe	-0.013567923
68	0x3c4997b0	0.0123042315
69	0xbe07f315	-0.13276322
70	0xbe3ded79	-0.1854762
71	0x3ce07c86	0.027403127
72	0xbd2555c7	-0.040365007
73	0x3ddeb2e8	0.108739674
74	0x3c7d35e1	0.01545474
75	0x3cb26463	0.021776384
76	0x3d6057d6	0.054771267
77	0xbc882f2b	-0.016624054
78	0x3dbe4236	0.092899725
79	0x3e3ba03f	0.18322848
80	0xbe16b45f	-0.14717244
81	0xbe38dd4c	-0.18053168
82	0x3e1249a8	0.1428591
83	0xbe25238b	-0.1612684
84	0xbdc04a70	-0.09389198
85	0xb893ad14	-7.0417445e-05
86	0xbd3f72be	-0.046740286
87	0x3e34610d	0.17615147
88	0x3e22dc69	0.15904392
89	0xbd1594bf	-0.03651881
90	0x3e10c7fd	0.1413879
91	0xbe3e086c	-0.185579
92	0x3def25bb	0.116771184
93	0x3e0ec71e	0.13943145
94	0x3e369623	0.1783071
95	0x3e13c3ea	0.14430204
96	0xbdbfc255	-0.09363238
97	0x3dd32942	0.10310604
98	0x3e30110d	0.17194004
99	0xbe056a00	-0.13028717
100	0xbd527bf4	-0.051387742
101	0x3e36d476	0.17854485
102	0xbd148f98	-0.036269754
103	0xbd9431b9	-0.07236046
104	0x3d854996	0.06508176
105	0xbe02817a	-0.12744704
106	0x3da27c1d	0.07933829
107	0xbe27fd58	-0.16405237
108	0x3e167215	0.14691956
109	0x3d3e78e9	0.046502028
110	0x3ce9b867	0.028530313
111	0xbccd3ede	-0.025054391
112	0x3e139f02	0.14416125
113	0x3e344dba	0.17607775
114	0x3db8b5ba	0.090190366
115	0x3e01c65e	0.12673327
116	0xbcea641b	-0.028612187
117	0x3e373666	0.17891845
118	0xbe05074f	-0.1299107
119	0xbe0a33f8	-0.13496387
120	0x3d113405	0.03545
121	0x3e01f8bd	0.12692542
122	0xbc6e2126	-0.01453427
123	0xbd0ad0ac	-0.03389041
124	0x3e3592e3	0.17731814
125	0xbd36aa0a	-0.044595756
126	0xbe2f9125	-0.17145212
127	0x3c7a0516	0.015260002
128	0xbd84ece0	-0.06490493
129	0x3d545306	0.05183699
130	0xbe0e9fc8	-0.13928139
131	0x3dd15f33	0.10223236
132	0x3e136e9b	0.14397661
133	0xbe05ff47	-0.13085662
134	0xbe25ba48	-0.16184342
135	0xbd56bbb1	-0.05242509
136	0xbd6db0aa	-0.058029808
137	0x3e16bee8	0.14721262
138	0x3cc92071	0.024551602
139	0xbdb5d3db	-0.08878299
140	0x3d506de6	0.050886057
141	0x3d8d1901	0.06889535
142	0xbb196e27	-0.0023411603
143	0x3cd9c017	0.026580853
144	0x3e28e17d	0.16492267
145	0xbd789aa3	-0.060694348
146	0x3d2cee0a	0.0422192
147	0xbddf6f0e	-0.10909854
148	0x3e2afc2b	0.16697757
149	0xbe35b157	-0.17743431
150	0x3ca64515	0.020296613
151	0xbe30273b	-0.17202465
152	0x3c2279c6	0.009916728
153	0xbcacf22f	-0.021111576
154	0x3e2936c4	0.16524798
155	0xbc36dc1c	-0.011160877
156	0xbdc33a4d	-0.09532604
157	0xbdd4d218	-0.10391635
158	0xbd8688aa	-0.06569035
159	0xbd9c6f69	-0.07638437
160	0xbe361e6b	-0.17785041
161	0x3d108b69	0.035289202
162	0x3c4fc3bc	0.012680944
163	0xbde4440c	-0.111457914
164	0xbd8d7b1b	-0.06908246
165	0xbd69c6e8	-0.057074457
166	0x3e3a07d8	0.18167055
167	0xbe149fdd	-0.14514108
168	0x3d6b0c5d	0.057384837
169	0xbe1a8245	-0.15088756
170	0xbdd0660b	-0.10175713
171	0x3e00a5f6	0.12563309
172	0xbe02d8ae	-0.12777969
173	0x3d3e396d	0.046441484
174	0xbdb27bac	-0.08714995
175	0x3dcc25b0	0.09968126
176	0x3e3cc43a	0.1843423
177	0x3e0f4548	0.13991272
178	0xbe35f39a	-0.17768708
179	0xbd68bbc7	-0.056819703
180	0xbdb094a9	-0.08622105
181	0x3d6e80f6	0.058228455
182	0x3e132ce5	0.14372595
183	0xbd985e7a	-0.07439895
184	0xbde49df0	-0.11162937
185	0x3e341135	0.17584689
186	0xbd2a58ff	-0.04158878
187	0x3dd2dc52	0.10295929
188	0xbe243b7c	-0.16038316
189	0xbd284476	-0.041080914
190	0x3d90d348	0.07071549
191	0xbdcecfc4	-0.10098222
192	0x3da5c28a	0.08093746
193	0xbe274424	-0.16334587
194	0x3e123a31	0.14280011
195	0x3dfecffc	0.124420136
196	0x3e043321	0.12910129
197	0x3c92d35a	0.017923046
198	0x3d9263a5	0.07147912
199	0x3df99452	0.12186493
200	0x3e1feb73	0.1561716
201	0x3dbfd95b	0.09367629
202	0xbe44c063	-0.19214015
203	0x3dd687de	0.10475133
204	0xbda1382c	-0.07872042
205	0x3d441824	0.047874585
206	0xbdc27b8a	-0.094962195
207	0x3d9f007a	0.07763763
208	0xbdb75025	-0.08950833
209	0xbc6db603	-0.014508727
210	0xbd3f3311	-0.04667956
211	0x3bc079a0	0.005873874
212	0x3e1556ea	0.14583936
213	0xbe43b07c	-0.19110292
214	0xbd23d15f	-0.039994594
215	0xbe0e934d	-0.13923378
216	0x3e3a7b92	0.18211201
217	0xbbcdb7c3	-0.0062780096
218	0x3abae94a	0.0014260199
219	0x3e205867	0.15658723
220	0xbb8a1204	-0.0042135734
221	0x3dd70231	0.10498465
222	0xbe2ad8d7	-0.1668428
223	0xbd73284d	-0.059364606
224	0x3e03443c	0.12818998
225	0xbe0f2bf4	-0.1398161
226	0xbde71859	-0.11283941
227	0xbe20c9e4	-0.15702015
228	0xbe0a360b	-0.13497178
229	0xbda6a9b0	-0.08137834
230	0xbd8de8bf	-0.069291584
231	0x3df3e1ba	0.11908288
232	0xbd399b6a	-0.04531423
233	0xbdf55227	-0.1197856
234	0x3de6e1da	0.112735465
235	0x3baf6b1d	0.005353345
236	0x3d303b4d	0.043025304
237	0xbd92f656	-0.07175891
238	0x3d2da09f	0.04238951
239	0x3e210428	0.15724242
240	0xbcc576c5	-0.024104485
241	0x3d526296	0.05136355
242	0xbdf0e076	-0.117615625
243	0x3e313a70	0.17307448
244	0xbe3212ab	-0.17389934
245	0xbd902da9	-0.07039959
246	0xbc389b3f	-0.011267482
247	0xbd93a839	-0.0720982
248	0x3c465afc	0.012106653
249	0xbd81cc98	-0.06337851
250	0x3e0d90cb	0.13824765
251	0xbd22e68c	-0.039770648
252	0xbc5b022f	-0.01336722
253	0x3e2742fe	0.16334149
254	0xbdaf026e	-0.08545385
255	0x3d7ac2e8	0.061221033

conv_block_1.0.bias f4 [10]
0	0xbd286df7	-0.041120496
1	0x3ce4b86a	0.027919967
2	0xbda1f090	-0.07907212
3	0x3d6b49fb	0.0574436
4	0x3e01af74	0.12664586
5	0x3d54a6fe	0.05191707
6	0xbda4cbfd	-0.0804672
7	0x3d7def0b	0.061995547
8	0xbe3c7516	-0.1840404
9	0xbd69bd33	-0.0570652

conv_block_1.2.weight f4 [10, 10, 3, 3]
0	0x3d456c69	0.04819909
1	0xbd881fbc	-0.06646678
2	0x3d30ebfe	0.04319381
3	0x3d6c1ba8	0.057643563
4	0x3d8effcd	0.06982384
5	0xbd21d266	-0.039507292
6	0x3db3c8f9	0.08778567
7	0xbb7af637	-0.0038293728
8	0xbc8f7ee1	-0.017516555
9	0x3cc316c5	0.023814568
10	0xbd805939	-0.06267018
11	0x3d927135	0.07150499
12	0xbd6f31d4	-0.05839713
13	0x3dceeb90	0.10103524
14	0xbd40c8d6	-0.047066532
15	0x3dd6dee8	0.10491735
16	0x3a6a0d94	0.0008928415
17	0x3da0c7cb	0.078506075
18	0x3c90b4e2	0.017664377
19	0xbc84c5e0	-0.016207635
20	0xbdd9b14a	-0.10629518
21	0xbd8d5c22	-0.069023386
22	0xbd4550c0	-0.048172712
23	0xbd8a7ffe	-0.06762694
24	0x3d22cbef	0.039745267
25	0x3d0edbd5	0.034877617
26	0x3d39ed47	0.0453923
27	0xbdb1081e	-0.08644126
28	0xbdc1a3b2	-0.094550505
29	0x3cb479e2	0.022030775
30	0xba7fa3d0	-0.0009751888
31	0xbd887df9	-0.066646524
32	0x3d45972d	0.048239876
33	0x3d8ddaa9	0.06926472
34	0x3da3e704	0.08003047
35	0xbc8b19ec	-0.016980134
36	0xbb2a6af6	-0.0026003695
37	0xbcc9318e	-0.024559762
38	0xbc8f5e2b	-0.017500957
39	0x3db88864	0.090103894
40	0xbd537666	-0.051626585
41	0x3d0b9456	0.03407701
42	0x3da03203	0.07822039
43	0x3dcae1d2	0.09906353
44	0x3d0e6902	0.034768112
45	0xbb9baabb	-0.0047505773
46	0xbd860589	-0.065440245
47	0x3c18fab2	0.009337114
48	0x3d0b36cd	0.03398781
49	0xbc3be585	-0.011468296
50	0xbca3dc9b	-0.020002654
51	0xbd4ef37b	-0.05052517
52	0x3ba0f835	0.004912401
53	0xbda721bb	-0.081607305
54	0x3c61fce9	0.013793209
55	0x3c7fce0b	0.015613089
56	0xbdcacda1	-0.09902502
57	0x3d9af949	0.075670786
58	0xbd9b9813	-0.07597365
59	0x3d187703	0.037222873
60	0xbc5857a6	-0.013204491
61	0x3d926baa	0.071494415
62	0xbd05536f	-0.03255027
63	0xbd420803	-0.04737092
64	0xbdb597fa	-0.08866878
65	0x3d825558	0.06363934
66	0xbd0385bf	-0.032109972
67	0x3d7eb9ea	0.06218902
68	0xbdb7f284	-0.08981803
69	0xbc6bc521	-0.014390261
70	0x3b6230e8	0.0034514014
71	0x3d75d865	0.060020823
72	0x3d274465	0.04083671
73	0xbdceb560	-0.10093188
74	0x3cbc0c73	0.022955155
75	0xbc01bd35	-0.007918646
76	0x3c158828	0.0091267
77	0xbd60c074	-0.054871038
78	0x3d009129	0.031388436
79	0xbd136450	-0.035984337
80	0xbdbc63f0	-0.09198749
81	0x3dd44166	0.10364036
82	0xbd8cc8a5	-0.068742074
83	0x3d0017e8	0.0312728
84	0xbc87fd22	-0.016600195
85	0x3c708ff6	0.01468276
86	0xbc492c44	-0.01227862
87	0xbd87f51a	-0.06638546
88	0x3d995aaf	0.07488
89	0x3cef061a	0.029177714
90	0x3db3cc0b	0.087791525
91	0x3cb6e4f4	0.02232597
92	0x3d1066c0	0.03525424
93	0xbd8ae28c	-0.06781492
94	0x3d1a2045	0.03762843
95	0x3d584d51	0.05280811
96	0xbb0420c1	-0.0020161124
97	0xbd067a9e	-0.03283178
98	0x3d6bc775	0.057563264
99	0x3d5ffb7d	0.054683197
100	0x3cce6229	0.02519329
101	0x3d9f221b	0.07770177
102	0x3d810465	0.06299666
103	0x3d89ef15	0.067350544
104	0x3dd60a65	0.10451201
105	0xbd4f9311	-0.050677363
106	0x3d7577c1	0.05992866
107	0xbd49eb62	-0.049296744
108	0xbda1c6ac	-0.07899222
109	0x3d9fcb43	0.07802441
110	0x3db8d324	0.09024647
111	0xbc571691	-0.013127939
112	0x3d88d95a	0.066820815
113	0xbdb7f1c3	-0.08981659
114	0xbd11c93c	-0.035592303
115	0xbdb84294	-0.08997074
116	0xbd6eee7b	-0.0583329
117	0xbd068888	-0.03284505
118	0xbca276ca	-0.019832034
119	0xbd3ef7f1	-0.046623174
120	0x3d2ba600	0.041906357
121	0xbd9eee82	-0.077603355
122	0xbc74fac0	-0.014952362
123	0x3d90e802	0.07075502
124	0x3dc941eb	0.09827026
125	0xbd8c02fc	-0.06836507
126	0x3ccce380	0.025010824
127	0xbde0416f	-0.109499805
128	0x3d6d7aaf	0.05797833
129	0x3c889918	0.016674563
130	0xbd6a9896	-0.057274424
131	0x3c80a7e9	0.015705066
132	0xbd82d580	-0.06388378
133	0xbdc5ba38	-0.09654659
134	0xbd6386ff	-0.055548664
135	0xbd983f6f	-0.07433974
136	0xbdabf39b	-0.083960734
137	0x3d3438af	0.04399937
138	0xbdb6392b	-0.08897623
139	0x3c08cb9f	0.008349328
140	0xbd08b276	-0.03337332
141	0x3d74516a	0.059647955
142	0xbdbbf0a6	-0.091767594
143	0xbc0b2795	-0.008493324
144	0x3d2a71e0	0.041612506
145	0x3c26316f	0.010143622
146	0xbd95d111	-0.07315267
147	0xbd91ace0	-0.071130514
148	0x3da85205	0.08218769
149	0x3d0c83c9	0.034305368
150	0xbda44976	-0.08021824
151	0x3d35a11c	0.0443431
152	0x3d677460	0.05650747
153	0x3ca00750	0.019534737
154	0x3d3952da	0.04524503
155	0x3c46ee5a	0.012141788
156	0x3d81f2a1	0.06345106
157	0x3cf13aaa	0.029446919
158	0x3a9bf6bb	0.0011899093
159	0xbd60b77f	-0.054862496
160	0x3d8b7b0d	0.068105794
161	0xbd35cc19	-0.044384096
162	0xbdcd2191	-0.10016168
163	0xbc997b25	-0.018735478
164	0x3dc9eb9e	0.098593935
165	0x3c986048	0.018600598
166	0x3b944c50	0.0045256987
167	0xbd9aa830	-0.075516105
168	0x3d3ca716	0.046057783
169	0xbdb41eb5	-0.087949194
170	0x3cf26e3c	0.02959358
171	0xbcbe7844	-0.023250706
172	0xbd143f3a	-0.03619311
173	0x3db4364f	0.08799421
174	0xbd09c688	-0.0336366
175	0x3d5d5db8	0.054044455
176	0xbc17d160	-0.0092662275
177	0xbb7e3592	-0.0038789255
178	0x3dbaeb3d	0.091268994
179	0x3da36ccc	0.07979736
180	0xbd3764a5	-0.044773716
181	0xbd13344e	-0.035938554
182	0xbd75f161	-0.06004465
183	0xbc89b884	-0.016811617
184	0xbd89dad7	-0.067311935
185	0x3dd64fac	0.10464415
186	0xbb39e536	-0.002836538
187	0x3dc847dd	0.09779332
188	0xbd54c701	-0.051947597
189	0x3c104702	0.008805992
190	0x3ca640d7	0.02029459
191	0x3d8fd8d1	0.07023776
192	0x3d8fc898	0.07020682
193	0xbd82ec4b	-0.063927256
194	0xbd8a33dc	-0.06748173
195	0x3caec93f	0.021336196
196	0x3d19ab4d	0.03751688
197	0xbd3caab1	-0.04606122
198	0xbd9848ac	-0.07435736
199	0x3d935c3d	0.071953274
200	0x3d0d53b2	0.034503646
201	0xbd851965	-0.06498984
202	0x3dcbadb2	0.09945239
203	0xbd779ee3	-0.06045426
204	0x3c0ccb41	0.008593381
205	0xbd7502f9	-0.059817288
206	0xbda09e16	-0.078426525
207	0xbdcd857f	-0.10035228
208	0xbda378f2	-0.07982053
209	0x3d465f57	0.048430767
210	0xbc3e1c48	-0.011603422
211	0xbdbc2506	-0.09186749
212	0x3d868361	0.06568027
213	0xbd8fcabb	-0.0702109
214	0xbd97ec7a	-0.07418151
215	0x3b239ccc	0.0024965284
216	0x3c8ccaf5	0.017186621
217	0xbcafbb28	-0.021451548
218	0x3d492fb4	0.04911776
219	0x3ca12617	0.019671483
220	0x3c733106	0.014843231
221	0x3db2a079	0.08722014
222	0x3cceceb4	0.025245048
223	0x3d5ce131	0.053925697
224	0x3dacd8fe	0.084398255
225	0x3d2cdaae	0.042200737
226	0xbcc88101	-0.024475576
227	0xbdafb82a	-0.085800484
228	0x3d901e25	0.070369996
229	0x3ba5dcf0	0.005061738
230	0x3cde82a1	0.027161898
231	0xbd981c4f	-0.074272744
232	0xbd29e142	-0.04147459
233	0x3da69cc3	0.08135369
234	0x3da4c7a5	0.08045892
235	0xbc348aef	-0.0110194525
236	0xbd463dba	-0.04839871
237	0x3d72a155	0.05923589
238	0xbd5e6862	-0.054298766
239	0xbc8d0236	-0.017212968
240	0xbd0a9c07	-0.033840206
241	0xbc5053e4	-0.012715314
242	0x3c9f3ec2	0.019439105
243	0xbd8a0958	-0.067400634
244	0x3ad93e5f	0.0016574374
245	0x3b9879f6	0.0046532108
246	0xbc88dc08	-0.016706482
247	0xbda64307	-0.08118253
248	0x3cde6619	0.027148293
249	0x3da06efe	0.0783367
250	0x3d8cd34d	0.0687624
251	0x3d8660ad	0.06561408
252	0x3dc6ff53	0.09716668
253	0x3da26512	0.07929434
254	0x3c158338	0.009125523
255	0x3d67706c	0.0565037

conv_block_1.2.bias f4 [10]
0	0xbb1daa1b	-0.002405769
1	0xbccfcf32	-0.025367353
2	0x3d7a8728	0.06116405
3	0xbd0313c8	-0.032001287
4	0xbdcca392	-0.09992136
5	0x3d0d5240	0.034502268
6	0xbdd5fb0f	-0.10448276
7	0x3da18a7c	0.07887742
8	0x3cd7cac9	0.026341813
9	0x3cdf8629	0.027285652

conv_block_2.0.weight f4 [10, 10, 3, 3]
0	0x3db64bd7	0.08901184
1	0xbd217733	-0.039420318
2	0xbd42aa8f	-0.04752594
3	0xbddab47d	-0.10678957
4	0xbd9e9287	-0.077427916
5	0x3d76803e	0.060180895
6	0xbbc6cd84	-0.00606698
7	0x3d9b6da1	0.075892694
8	0xbc286c16	-0.010279676
9	0xbd283dfd	-0.04107474
10	0x3bb741d4	0.005592564
11	0x3da59f82	0.08087064
12	0x3db26416	0.08710496
13	0x3daac6f6	0.0833873
14	0x3d9f376e	0.07774244
15	0x3cabdcab	0.020979246
16	0xbd72f2b1	-0.05931348
17	0xbd70c54b	-0.058781903
18	0xbd7a1f78	-0.061065167
19	0x3ceea161	0.029129686
20	0x3dd0fb2c	0.10204157
21	0x3d2f8cbe	0.04285883
22	0x3d558d2d	0.05213659
23	0xbcba9bfc	-0.022779457
24	0x3d26f627	0.040762093
25	0x3cc611a9	0.024178343
26	0x3d406834	0.046974376
27	0x3d573050	0.05253631
28	0xbd4ba6c1	-0.049719576
29	0x3d695062	0.056961425
30	0xbd47518e	-0.04866176
31	0x3dc80d87	0.09768205
32	0xbc930ce8	-0.01795049
33	0xbd785657	-0.060629215
34	0x3d9ca815	0.076492466
35	0x3dd55e71	0.10418404
36	0x3d72ff92	0.059325762
37	0xbd8a987a	-0.06767364
38	0x3c77f590	0.01513423
39	0xbd07b6d6	-0.03313335
40	0xbcc526fc	-0.02406644
41	0xbda7c0ec	-0.08191094
42	0x3d7bf6c6	0.06151464
43	0xbd973b3f	-0.07384347
44	0xbd2ac546	-0.04169204
45	0xbd87faf5	-0.06639663
46	0xbdd2793e	-0.10277031
47	0xbd9370d4	-0.07199255
48	0x3d9e313c	0.077242345
49	0x3d4d0e20	0.0500623
50	0xbd789d59	-0.060696933
51	0xbbcd2c32	-0.006261372
52	0x3d6eab71	0.058268968
53	0xbd407efe	-0.04699611
54	0x3cd78c7e	0.02631211
55	0x3d360095	0.04443415
56	0xbd149dee	-0.036283426
57	0xbdd61d29	-0.104547806
58	0xbd39bc8a	-0.04534582
59	0x3d347c4b	0.044063848
60	0xbd88d19f	-0.06680607
61	0x3d353eb5	0.044249255
62	0x3cc445bd	0.023959035
63	0x3c4947ec	0.012285214
64	0x3c25142d	0.010075611
65	0x3cbbaa42	0.022908334
66	0xbdb86eda	-0.09005518
67	0x3d9ab200	0.07553482
68	0xbccd6751	-0.02507368
69	0x3da0ff8a	0.0786124
70	0x3d6b678e	0.057471804
71	0xbc03b262	-0.008038135
72	0x3b298898	0.002586877
73	0xbd342d67	-0.04398861
74	0x3d3c66f0	0.045996606
75	0xbdbf8034	-0.09350625
76	0x3d51aa65	0.05118789
77	0x3d7a07de	0.06104266
78	0x3d5cacdf	0.0538758
79	0xbd3363a6	-0.043796204
80	0xbd014149	-0.0315564
81	0x3cfefe34	0.031127073
82	0xbdc900e5	-0.09814624
83	0xbdc6b59d	-0.09702609
84	0xbc972b36	-0.018453222
85	0x3b9690f6	0.0045949174
86	0x3d91d7ca	0.071212366
87	0xbd3931ac	-0.045213386
88	0xbd00fdf3	-0.031492185
89	0x3d6ce7b7	0.057838168
90	0xbb491fc0	-0.003068909
91	0xbc1865e8	-0.00930164
92	0xbca6c570	-0.020357817
93	0xbda51b21	-0.08061815
94	0x3d63e87a	0.05564163
95	0xbd966007	-0.073425345
96	0xbdd2b028	-0.102875054
97	0xbcb7bcdc	-0.022428922
98	0xbd9d7443	-0.07688191
99	0x3dbd4c17	0.092430286
100	0xbcbbb5f8	-0.022913918
101	0x3d05d7ae	0.03267639
102	0x3d928fe5	0.07156352
103	0x3cc99ec4	0.024611838
104	0x3d8e0f63	0.069365285
105	0x3abff700	0.0014645755
106	0xbd3e3b90	-0.046443522
107	0xbd2eb122	-0.042649396
108	0xbda79960	-0.08183551
109	0xbd821734	-0.06352082
110	0x3d267b7a	0.0406451
111	0xbd8ce15e	-0.06878923
112	0xbd48c56c	-0.0490164
113	0x3dd3914f	0.1033045
114	0xbc97b310	-0.018518
115	0x3d9f520b	0.0777932
116	0xbd6dc840	-0.0580523
117	0x3d256822	0.040382512
118	0xbdad919d	-0.08475039
119	0x3b98eb80	0.0046667457
120	0x3db3999f	0.08769535
121	0x3d65763a	0.056020953
122	0x3d5f555e	0.054524772
123	0xbc4557e0	-0.012044877
124	0x3d74f92e	0.05980795
125	0x3bf54a10	0.0074856356
126	0xbd8fbf04	-0.07018855
127	0x3da13d2b	0.07872995
128	0x3d731b22	0.059352048
129	0xbdd2cb6b	-0.10292705
130	0xbc8c7ee8	-0.017150357
131	0x3d922d45	0.07137541
132	0x3d97abf3	0.074058436
133	0x3cf78abc	0.03021752
134	0x3d558b1e	0.052134626
135	0xbdd6280e	-0.104568586
136	0x3cdad4cc	0.026712798
137	0x3d8ea9f9	0.069660135
138	0x3d772696	0.060339533
139	0xbcf96b6c	-0.03044673
140	0xbd07dbd2	-0.03316862
141	0x3d98595f	0.07438921
142	0xbd926d60	-0.07149768
143	0x3dcce9d1	0.100055344
144	0xbdcd0234	-0.10010186
145	0xbdabc0e0	-0.08386397
146	0xbdb9ad5b	-0.09066268
147	0xbd079656	-0.033102356
148	0x3d6eae6e	0.058271818
149	0x3cdf19dc	0.02723401
150	0xbd3b0f81	-0.045669083
151	0xbd6433f5	-0.055713613
152	0x3d2ae5f6	0.041723214
153	0xbd00e73c	-0.031470522
154	0x3dc0b02f	0.09408604
155	0x3db2a57d	0.08722971
156	0xbd0e38ea	-0.034722246
157	0xbcc40900	-0.023930073
158	0x3d719002	0.058975227
159	0x3d5beeaa	0.053694405
160	0xbdc931ac	-0.09823927
161	0xbd83d122	-0.06436373
162	0xbc075ff0	-0.008262619
163	0xbd362751	-0.04447109
164	0x3d2b1fb6	0.04177829
165	0x3d365d92	0.04452283
166	0x3da9f0ff	0.082979195
167	0x3dae4e79	0.08511061
168	0xbb16eee0	-0.0023030564
169	0xbc9db7fc	-0.01925277
170	0x3d934905	0.07191662
171	0xbc7b7b08	-0.015349157
172	0x3d0ccdb2	0.034375854
173	0x3dd5b1a5	0.10434274
174	0xbd8753a1	-0.06607748
175	0xbd4f2293	-0.050570082
176	0xbd7bbc12	-0.061458655
177	0xbb879f30	-0.0041388497
178	0x3d7dfdde	0.062009685
179	0xbd9961d8	-0.07489365
180	0xbd9262b8	-0.07147735
181	0x3da854f1	0.08219326
182	0xbd5ae0f6	-0.053437196
183	0x3d9bd8fb	0.07609745
184	0xbd4d1bb7	-0.05007526
185	0xbd8c1af8	-0.068410814
186	0xbd3bcf85	-0.045852203
187	0x3c348306	0.011017567
188	0x3ce19d55	0.027540842
189	0xbdb876be	-0.09007023
190	0xbdd4a996	-0.103839085
191	0x3dc304ab	0.09522375
192	0xbdb73794	-0.089461476
193	0x3d0f28fa	0.034951188
194	0xbda8759d	-0.08225558
195	0xbd7914cb	-0.060810845
196	0xbd677cde	-0.056515567
197	0xbdc2a401	-0.095039375
198	0xbd76197d	-0.0600829
199	0xbcc9846c	-0.024599276
200	0x3c39031c	0.011292245
201	0x3d2f5c49	0.04281262
202	0xbcd28a2d	-0.025700653
203	0xbdcad4d3	-0.09903874
204	0xbcda64e7	-0.026659442
205	0x3bb7d7b7	0.005610432
206	0xbd3e37b5	-0.046439845
207	0xbc338ee8	-0.0109593645
208	0x3dca6099	0.09881706
209	0xbc10d188	-0.008839019
210	0x3cb2042c	0.021730505
211	0x3c81cdb0	0.01584515
212	0x3dcb5aa3	0.09929397
213	0xbdafddde	-0.0858724
214	0xbda63d81	-0.081172
215	0xbd8bd3e4	-0.06827524
216	0x3dadc3f1	0.084846385
217	0xbcd0c3f0	-0.025484055
218	0x3d19ca4a	0.037546434
219	0x3d0fa08e	0.035065226
220	0xbd3caf69	-0.04606572
221	0x3d2206f2	0.039557405
222	0x3ca3feb4	0.020018913
223	0xbd79674f	-0.06088954
224	0x3d6f151a	0.058369733
225	0xbca85173	-0.02054665
226	0x3da613f1	0.08109272
227	0x3cbf3b3c	0.023343675
228	0xb98f457c	-0.00027326855
229	0x3c97d5f7	0.018534644
230	0x3dcd22d5	0.10016409
231	0xbda7f5da	-0.08201189
232	0x3d79d351	0.060992543
233	0xbbfea778	-0.0077714287
234	0xbda5f10c	-0.08102617
235	0xbdde4d19	-0.10854549
236	0x3db036cc	0.08604202
237	0xbd796657	-0.060888615
238	0xbbd81468	-0.0065942295
239	0xbdd7d267	-0.10538178
240	0x3cae894e	0.021305706
241	0xbdc78f9d	-0.09744189
242	0x3d964d2c	0.07338938
243	0xbd940ce8	-0.07229024
244	0x3d21f236	0.03953763
245	0xbdc14caf	-0.09438454
246	0x3d862070	0.06549156
247	0x3c6478ac	0.013944786
248	0xbd83241e	-0.06403373
249	0x3d5ecfab	0.054397266
250	0x3dc9a189	0.098452635
251	0x3c8a8529	0.016909199
252	0x3d575d1e	0.052579038
253	0xbc68af6d	-0.014201981
254	0xbd0d6bef	-0.03452676
255	0xbd0b93e9	-0.034076605

conv_block_2.0.bias f4 [10]
0	0x3dd06fe2	0.1017759
1	0xbdd45926	-0.10368566
2	0xbda785d2	-0.08179821
3	0xbcf40233	-0.029786205
4	0x3c0b9b60	0.008520931
5	0xbcdba83c	-0.026813619
6	0xbddb564a	-0.10709818
7	0xbd1dc367	-0.03851643
8	0x3ac35b4d	0.0014904529
9	0xbcbf7527	-0.023371292

conv_block_2.2.weight f4 [10, 10, 3, 3]
0	0xbdba6b99	-0.09102554
1	0x3cc35cb9	0.023847925
2	0x3d537070	0.0516209
3	0x3d9c283e	0.07624863
4	0x3b1fa2b4	0.0024358453
5	0x3dc42b5e	0.09578584
6	0x3d49d0b7	0.04927131
7	0xbd943a19	-0.07237644
8	0xbdd43fed	-0.103637554
9	0x3db5afc7	0.088714175
10	0x3ca6012c	0.02026423
11	0x3d8e93d3	0.06961789
12	0x3d8fab1f	0.07015061
13	0xbd8cc8d0	-0.068742394
14	0xbd2256ea	-0.03963367
15	0xbd3828d8	-0.044960827
16	0x3db04b1f	0.08608078
17	0xbd62718b	-0.055284064
18	0x3dbe4206	0.09289937
19	0x3d1f80c0	0.038941145
20	0xbc8490a0	-0.016182244
21	0xbd915537	-0.070963316
22	0xbd2b831e	-0.04187309
23	0xbd3dda1c	-0.046350583
24	0xbd10b9ee	-0.035333566
25	0x3dcfb5aa	0.101420715
26	0xbc02c9ed	-0.007982713
27	0x3ba63775	0.005072529
28	0x3c5f35e0	0.013623685
29	0xbd7c32b2	-0.061571784
30	0x3db1ca33	0.086811446
31	0xbc020256	-0.007935127
32	0xbb434afd	-0.0029799335
33	0x3db96a81	0.09053517
34	0xbbb7f60e	-0.005614049
35	0xbd7d29ee	-0.061807565
36	0x3d8b4b82	0.06801511
37	0x3db66366	0.089056775
38	0xbd70a46d	-0.05875056
39	0xbce2d46b	-0.02768918
40	0x3db59ef6	0.0886821
41	0x3d800e07	0.062526755
42	0xbd660005	-0.056152362
43	0x3cd6f26a	0.026238639
44	0x3c40d7ff	0.0117702475
45	0xbc934440	-0.01797688
46	0xbd0c5565	-0.034261126
47	0xbcdda9ed	-0.027058566
48	0xbbc8b2db	-0.006124837
49	0xbd196dfc	-0.037458405
50	0x3d6b7b1e	0.05749046
51	0xbd87f0dd	-0.06637738
52	0x3c999e8a	0.018752355
53	0xbd7d6c86	-0.061871074
54	0xbd7864ca	-0.060642995
55	0x3d8b3ab2	0.067983046
56	0x3c9be9bf	0.019032357
57	0xbd960a58	-0.07326192
58	0xbddf48f4	-0.109025866
59	0xbcb78f63	-0.02240724
60	0x3ced7dda	0.028990675
61	0xbda6ac1c	-0.08138296
62	0x3d1e16ec	0.03859608
63	0xbbe0542f	-0.006845973
64	0xbdb77d42	-0.08959438
65	0x3c3cb7db	0.011518444
66	0x3d792926	0.060830258
67	0x3d2b2192	0.041780062
68	0xbdc47cfa	-0.0959415
69	0x3db09df8	0.0862388
70	0x3d9151c1	0.070956714
71	0x3cd790d0	0.02631417
72	0xbdb2ad9c	-0.087245196
73	0x3bb294e5	0.0054498785
74	0xbda15530	-0.07877576
75	0x3c393160	0.011303276
76	0xbd6e0ccf	-0.058117684
77	0x3d4a8aa0	0.04944861
78	0x3caa2a18	0.020772025
79	0xbdbe9d87	-0.0930739
80	0x3d6c729e	0.057726495
81	0x3d2690e6	0.04066553
82	0x3c43c0a9	0.011947789
83	0x3cd9d335	0.02658997
84	0xbd4ccd6d	-0.050000597
85	0x3c79e438	0.0152521655
86	0x3dd113a8	0.10208827
87	0x3cf4433f	0.029817222
88	0x3dac9eac	0.08428702
89	0xbc720ad2	-0.014773088
90	0xbbc53d40	-0.0060192645
91	0xbd3a18e4	-0.045433894
92	0xbd1fe603	-0.039037716
93	0xbdb3b3b0	-0.08774507
94	0xbd890af3	-0.066915415
95	0x3d6b332f	0.05742186
96	0xbd922478	-0.07135862
97	0x3dbfacb4	0.093591124
98	0xbd8a8d93	-0.067652844
99	0xbcafaaa4	-0.021443672
100	0xbcb64a5c	-0.022252254
101	0xbd9242d3	-0.07141652
102	0x3d5e9156	0.054337822
103	0x3d1e2966	0.0386137
104	0x3dcfc337	0.10144656
105	0xbd751d0a	-0.059842147
106	0xbdb1cb5e	-0.08681367
107	0xbd594c5a	-0.05305133
108	0x3bd96cf4	0.0066353027
109	0x3d20d84a	0.03926877
110	0x3d9c79e8	0.07640439
111	0xbd040041	-0.032226805
112	0x3b4b9863	0.0031066171
113	0xbcbaeb8a	-0.022817392
114	0xbdc257a7	-0.094893746
115	0xbd0c6c34	-0.034282878
116	0xbd225a60	-0.03963697
117	0x3d1faf28	0.0389854
118	0xbdd6047a	-0.104500726
119	0x38ce8358	9.84731e-05
120	0x3d4efc3a	0.05053351
121	0xbc34fea2	-0.011047037
122	0xbcb57203	-0.022149092
123	0x3d924486	0.07141976
124	0xbdd1ccb5	-0.10244123
125	0x3d3cb0fa	0.046067216
126	0x3d6755d3	0.056478333
127	0x3c995bcd	0.018720532
128	0x3d6b91ac	0.05751197
129	0xbd930e11	-0.07180417
130	0x3db4e54c	0.088327974
131	0xbd9e925f	-0.07742762
132	0x3d86e43a	0.065864995
133	0x3db12db9	0.08651299
134	0x3d7112ea	0.05885593
135	0xbd651203	-0.05592538
136	0x3dbb7281	0.09152699
137	0x3dbbe192	0.091738835
138	0xbc9e4d02	-0.01932383
139	0xbcd485e6	-0.025942754
140	0x3b808fb5	0.003923381
141	0x3da86fda	0.08224459
142	0x3d55081a	0.05200968
143	0xbd790787	-0.060798194
144	0x3cfe40db	0.031036785
145	0x3bac367e	0.0052555194
146	0xbd843d4e	-0.064570054
147	0xbd37cb31	-0.044871513
148	0xbd16a0c2	-0.036774404
149	0x3da44ad7	0.08022087
150	0x3dcace22	0.09902598
151	0x3d7b4aec	0.061350748
152	0xbd07108a	-0.032974757
153	0x3dc22c37	0.094810896
154	0xbd87e780	-0.06635952
155	0x3c87d4a3	0.016580885
156	0x3d536330	0.051608264
157	0xb9fc0356	-0.0004806767
158	0x3b63b095	0.0034742702
159	0xbb8cc210	-0.004295595
160	0x3d9ee3c1	0.07758284
161	0xbdcb7ba3	-0.09935691
162	0x3c4f32d2	0.012646394
163	0xbdb31f76	-0.08746235
164	0x3da4d0cc	0.08047637
165	0xbd8927d8	-0.06697053
166	0xbc4d1cc7	-0.012519068
167	0xbd9f9031	-0.07791174
168	0x3dc785d4	0.097423226
169	0xbc880187	-0.01660229
170	0x3d9aa9af	0.07551896
171	0x3d260b60	0.04053819
172	0x3d448e08	0.047987014
173	0xbcaf38cf	-0.021389393
174	0x3d40886a	0.047005095
175	0xbddc3460	-0.10752177
176	0x3d6eeaa2	0.058329232
177	0xbdc14d1c	-0.094385356
178	0x3d8a772e	0.06761013
179	0xbda93e85	-0.08263878
180	0xbd1825b8	-0.037145346
181	0x3d801145	0.06253294
182	0xbcd47e0c	-0.02593901
183	0x3db0d4ab	0.08634313
184	0xbdc99eb1	-0.09844721
185	0xbbaa13b0	-0.005190335
186	0xbd2112ee	-0.039324693
187	0xbcba6e68	-0.022757724
188	0xbb34c0c0	-0.0027580708
189	0xbc117580	-0.008878112
190	0xbda6ed6a	-0.08150752
191	0x3d807327	0.062719636
192	0xbdb4742c	-0.088112205
193	0x3da8567f	0.08219623
194	0x3d96f197	0.07370298
195	0xbb5f9620	-0.003411658
196	0xbd93c552	-0.0721537
197	0x3d15409e	0.036438577
198	0xbc5b4a98	-0.013384484
199	0xbcb2d050	-0.021827847
200	0xbdd13e13	-0.10216918
201	0xbd71a35f	-0.058993693
202	0xbd72c754	-0.059272125
203	0x3da5f055	0.0810248
204	0x3dc3d28f	0.09561645
205	0x3c688c18	0.014193557
206	0xbd6eeeac	-0.058333084
207	0x3d8add85	0.06780533
208	0x3d46ed5e	0.048566215
209	0x3d51f9c6	0.051263593
210	0xbdd4c6f9	-0.103895135
211	0x3dc85bdb	0.09783145
212	0xbaed1a00	-0.0018089414
213	0x3dbbfb49	0.09178788
214	0x3bf3dea0	0.0074423105
215	0xbd3287b0	-0.043586433
216	0xbc991ef0	-0.01869151
217	0xbd99f754	-0.07517877
218	0xbbfd1e40	-0.0077245533
219	0xbc618330	-0.013764188
220	0xbd0bb48e	-0.034107737
221	0x3d7f740e	0.062366538
222	0x3da64b3d	0.08119819
223	0xbdb4bfc0	-0.08825636
224	0xbdd04259	-0.10168905
225	0x3cce1eb4	0.025161125
226	0x3da72e2d	0.08163104
227	0xbc00a360	-0.007851452
228	0x3cc0a0fc	0.023514263
229	0xbd445d5f	-0.047940608
230	0x3bb46000	0.005504608
231	0xbdb61911	-0.088915
232	0x3d71cf46	0.059035562
233	0xbd20ddda	-0.039274074
234	0xbd03bb12	-0.032160826
235	0xbda36d60	-0.07979846
236	0xbdcc40b4	-0.09973279
237	0x3d93027b	0.071782075
238	0xbdc92a18	-0.09822482
239	0x3d2b38c6	0.04180219
240	0x3d0c1726	0.034201764
241	0xbda8ed2b	-0.08248361
242	0xbda75e61	-0.08172298
243	0x3d1010c2	0.03517223
244	0xbdc82146	-0.097719714
245	0xbd8497b1	-0.06474245
246	0xbbf7b680	-0.0075595975
247	0x3d29e386	0.04147675
248	0xbc133298	-0.00898423
249	0xbd99d1ec	-0.075107425
250	0x3d04d412	0.03242881
251	0xbca80738	-0.020511255
252	0x3cd46d34	0.025930978
253	0xbdd7ac37	-0.10530894
254	0x3d0a00fa	0.033692338
255	0xbc63e230	-0.013908908

conv_block_2.2.bias f4 [10]
0	0x3d8fe5d2	0.070262566
1	0x3d165ccd	0.036709595
2	0xbd312275	-0.04324575
3	0xbbc26472	-0.005932384
4	0x3d0dec78	0.034649342
5	0x3c30e70c	0.010797273
6	0xbcf80a1c	-0.030278258
7	0x3d46f99c	0.04857789
8	0x3dcb0bb4	0.099143416
9	0xbcde7eff	-0.027160166

classifier.1.weight f4 [3, 1690]
0	0xbca9bf23	-0.020721024
1	0xbc11f586	-0.008908635
2	0xbcc8f769	-0.024532037
3	0xbc3301d9	-0.0109257335
4	0x3b9cf1f9	0.0047895876
5	0xbcb8763c	-0.022517316
6	0xba890c2c	-0.0010455898
7	0xbca9da0e	-0.02073386
8	0x3c6a54a6	0.014302408
9	0x3c0a9445	0.008458202
10	0x3b8ea8cd	0.0043536187
11	0x3caf1080	0.021370173
12	0xbc4df5c3	-0.012570801
13	0x3a8ee98c	0.0010903343
14	0x3b8f7a35	0.004378582
15	0x3cb332a6	0.021874737
16	0xbcc81d4b	-0.02442803
17	0x3c08173a	0.008306319
18	0xbc0b0995	-0.008486171
19	0x3caa4b16	0.020787757
20	0xbcaa9fc3	-0.020828133
21	0xbc932330	-0.017961115
22	0x3c2c17d9	0.010503733
23	0xbcbebeec	-0.023284398
24	0xbcbfab76	-0.023397189
25	0x3c9b54c2	0.018961314
26	0x3b4d38f9	0.0031314476
27	0x3ca8a6b8	0.02058731
28	0x3ca4e07d	0.020126576
29	0x3cafd967	0.02146597
30	0xbc1a1ce0	-0.009406298
31	0xbc1b4a6f	-0.009478196
32	0xbc407733	-0.011747169
33	0xbb2354c5	-0.0024922353
34	0x3c82ef38	0.015983209
35	0xba9a3ea1	-0.0011767932
36	0xbc2f406c	-0.010696512
37	0x3bbe200a	0.005802159
38	0x3c1c117a	0.009525651
39	0xbc0cd58d	-0.008595836
40	0x3b938b99	0.0045027253
41	0x3c80a694	0.01570443
42	0x3a5300cf	0.0008049132
43	0xbbecadb4	-0.0072228555
44	0xbb75b639	-0.0037492646
45	0xbc1e1711	-0.009649054
46	0x3c8e1005	0.017341623
47	0x3c90c953	0.017674124
48	0xbb879055	-0.0041370788
49	0xbc517353	-0.012783843
50	0xbae3bd31	-0.0017375109
51	0x3c16d23f	0.0092054
52	0x3c5ebe12	0.013595121
53	0xbc90bf14	-0.017669238
54	0xbbe6601e	-0.007030501
55	0x3c784414	0.01515295
56	0xbb695dae	-0.0035608816
57	0xb9213e92	-0.00015377466
58	0x3a6840d0	0.00088597555
59	0x3b40a7a4	0.0029396797
60	0x3c191c33	0.009345102
61	0xbc310d10	-0.010806337
62	0xbcace3a6	-0.021104645
63	0x3bc142b2	0.0058978433
64	0xbcb45717	-0.022014184
65	0x3c4a8851	0.012361602
66	0xbc116cf6	-0.008876076
67	0x3ae80036	0.0017700258
68	0xbbeac875	-0.0071650096
69	0x3c7e720c	0.015530121
70	0xbaa21ce6	-0.0012368232
71	0xbcb530dc	-0.022118025
72	0xbc2cc658	-0.010545336
73	0x3c8ec1bc	0.017426364
74	0x3cae5f10	0.021285564
75	0xbcc51b7c	-0.024060957
76	0xbbb8524f	-0.0056250463
77	0x3cb23e23	0.021758145
78	0xbc1c75fe	-0.009549616
79	0xbc8b695d	-0.017018015
80	0xbc871ee2	-0.016494218
81	0x3cadc617	0.02121262
82	0xbb35c143	-0.00277336
83	0x3cb957b6	0.022624832
84	0x3ca8fe6e	0.020629134
85	0x3ab33afa	0.0013674193
86	0xbcca396d	-0.024685586
87	0x3b4ad3e7	0.0030949058
88	0xbb8c453b	-0.004280714
89	0xbcb1d524	-0.021708079
90	0x3c9930ce	0.01870003
91	0x3be94bd9	0.0071196374
92	0x3ae752b4	0.0017648549
93	0xbbbb0311	-0.0057071527
94	0xbc689189	-0.014194855
95	0x3c2a7236	0.010403207
96	0xbbb56166	-0.0055352924
97	0xbca1342d	-0.0196782
98	0x3c41abb7	0.011820725
99	0xbcc86d52	-0.02446619
100	0x3b84820d	0.0040438236
101	0xb89b406e	-7.402977e-05
102	0x3c1105fe	0.008851526
103	0xbc5cc870	-0.013475522
104	0x3c21ac35	0.0098677175
105	0x3c80fab5	0.015744546
106	0xbcbc4cdc	-0.022985868
107	0xbc3eb989	-0.011640915
108	0xbbc2fc6e	-0.005950502
109	0x3c952131	0.018204303
110	0x3c89711f	0.016777573
111	0x3b645e28	0.003484616
112	0x3aa455c4	0.0012537767
113	0x3c2d728b	0.010586391
114	0x3c60a7b4	0.013711859
115	0xbca4eb92	-0.02013186
116	0xbb96c3dc	-0.004600985
117	0xbc9a3b75	-0.01882718
118	0x3cabab2b	0.020955643
119	0xbbcaaff4	-0.006185526
120	0x3c3056dd	0.010762897
121	0x3cb4109a	0.021980572
122	0x3a35cd00	0.00069351494
123	0xbca9bb8a	-0.020719308
124	0xbca6adc6	-0.020346534
125	0x3c3d2e25	0.011546646
126	0x3afb1b69	0.0019157949
127	0xbb18a185	-0.0023289633
128	0x3af11085	0.0018391764
129	0x3b84eeb4	0.004056776
130	0xbacebc3f	-0.0015772654
131	0x39e61bb4	0.0004388966
132	0xbc96b07c	-0.018394701
133	0x3c6e4501	0.014542819
134	0x3c979abd	0.018506402
135	0x3c8b47fb	0.017002096
136	0xbbc086e0	-0.0058754534
137	0x3b277b0a	0.0025555515
138	0xbcb9af3b	-0.022666564
139	0xbca2f8c2	-0.019894008
140	0xbb5f1bf1	-0.0034043754
141	0x3c17ffcb	0.009277294
142	0x3c30b704	0.010785822
143	0x3cac430d	0.021028066
144	0x3921ff20	0.00015449198
145	0xbc968c2a	-0.018377382
146	0xbc92a406	-0.017900478
147	0xbb74d3f1	-0.0037357772
148	0x3ca4e459	0.020128416
149	0x3b0d9c6f	0.0021608134
150	0xbc3b32cb	-0.011425684
151	0xbc6034b5	-0.013684441
152	0xbc107970	-0.008818015
153	0x3b9f6a06	0.004864934
154	0xbbff09e3	-0.007783161
155	0x3bb46650	0.0055053607
156	0x3c05757b	0.008145685
157	0x3c1f0060	0.009704679
158	0x3c3a8770	0.01138483
159	0x3988e91a	0.00026113616
160	0xbcbe4187	-0.023224605
161	0x3c9b96b1	0.018992754
162	0xbc897b15	-0.016782323
163	0x3c378573	0.01120125
164	0xbb76c7e4	-0.0037655765
165	0x3bc1e30c	0.0059169587
166	0x3cb84bd7	0.0224971
167	0xbbb3deda	-0.0054892125
168	0xbc3bbdda	-0.011458838
169	0xbc075774	-0.008260597
170	0x3c8502b9	0.01623665
171	0x3b6c49cf	0.0036054736
172	0xbb2e4570	-0.002659168
173	0xbc968623	-0.018374508
174	0x3c95f8b9	0.018307077
175	0x3a84879c	0.0010111216
176	0xbc5d0fe9	-0.013492563
177	0x3a03f1da	0.0005033292
178	0xbc6bc300	-0.014389753
179	0xbc3118ea	-0.010809163
180	0xbca0a29d	-0.01960879
181	0x3c3524c1	0.011056126
182	0x3c4935fd	0.012280938
183	0xbc27ee99	-0.010249757
184	0xbcaef3c2	-0.021356467
185	0x3c1b1322	0.009465011
186	0xbb00716b	-0.0019598852
187	0xbc5b408c	-0.013382088
188	0x3ada8301	0.0016671122
189	0x3b4e7ce8	0.0031507555
190	0xbb7b6884	-0.0038361857
191	0xbb17e015	-0.0023174335
192	0x3bc80d82	0.006105126
193	0xbb985d4e	-0.0046497947
194	0xbcc40ee6	-0.023932885
195	0x3c6df4f7	0.014523736
196	0xbbc0a61f	-0.005879178
197	0x3ca76dbe	0.020438071
198	0xbcada5d8	-0.021197245
199	0xbbbdc927	-0.0057918015
200	0xbb9fbce7	-0.004874814
201	0xb8006ee0	-3.062084e-05
202	0xbc7279ea	-0.014799574
203	0xbc64d578	-0.013966911
204	0x3c486991	0.0122322
205	0xbb0d285c	-0.0021538949
206	0x3c1552dd	0.009113994
207	0x3ca97ace	0.02068844
208	0xbcd9a6ac	-0.026568733
209	0xbcb13094	-0.02162961
210	0x3c508c8c	0.0127288215
211	0xbc3ef188	-0.011654265
212	0xbc1f421f	-0.009720354
213	0xbcdf1aec	-0.027234517
214	0x3c79c07e	0.015243648
215	0xbca6a09c	-0.020340256
216	0xbbe6e519	-0.0070463535
217	0xbcca6051	-0.02470413
218	0x3c8cfc1f	0.017210064
219	0xbcdfb503	-0.027307993
220	0x3bc5f837	0.0060415524
221	0x3c014b65	0.007891511
222	0x3c429be3	0.011877987
223	0xbbe4eec2	-0.00698647
224	0xbc76dc36	-0.015067151
225	0x3a92c908	0.0011198828
226	0x3ca03029	0.019554215
227	0x3c3be57e	0.011468289
228	0x3cb2eb49	0.021840708
229	0xbc81f09b	-0.0158618
230	0xbad6f650	-0.0016400311
231	0xbccb540d	-0.024820352
232	0xbc7905de	-0.015199153
233	0x3ca95e28	0.02067478
234	0x3b9c10b1	0.004762732
235	0x3c9fc3be	0.019502517
236	0x3c954dac	0.018225513
237	0x3ba9fae0	0.0051873773
238	0xbc56919a	-0.013096238
239	0xba7be6fe	-0.00096093107
240	0x3bdd9ed8	0.0067633204
241	0x3c1b5dcb	0.009482811
242	0xbcae5ab6	-0.021283489
243	0xbca84ae2	-0.02054352
244	0x3c1b731c	0.009487893
245	0x3bb0bded	0.0053937347
246	0x3c954754	0.018222488
247	0x3b6930a3	0.0035581968
248	0xbcc220d8	-0.023697302
249	0xbc7d2565	-0.01545081
250	0xbc4a2777	-0.012338511
251	0xbc0c5dbf	-0.008567273
252	0x3c1f4766	0.009721613
253	0x3c060604	0.008180145
254	0x3b51ee3e	0.0032032873
255	0x3c5d9cba	0.013526136

classifier.1.bias f4 [3]
0	0xbc861741	-0.01636851
1	0x3c639191	0.013889686
2	0x3acfb6b2	0.0015847294
